predictions/zvcoqzio/model_state_dict.pt (torch, 82949 bytes, 105 tensors)

in_c.0.0.weight f2 [4, 1, 3, 3]
0.178 0.3071 0.521 -0.1489 0.2428 -0.1575 -0.527 -0.2615
0.05847 -0.3289 0.0634 0.0883 -0.3337 0.00443 0.252 -0.2786
-0.001483 0.5054 -0.4153 -0.1111 -0.1938 0.2467 -0.311 0.2627
0.6753 -0.0942 0.1404 -0.305 0.2693 -0.01538 0.3013 0.3047
0.3352 -0.0524 -0.1693 -0.03363
00000000: b231 ea34 2b38 c4b0 c533 0ab1 37b8 2fb4
00000010: 7c2b 43b5 0f2c a72d 57b5 891c 0834 75b4
00000020: 1396 0b38 a5b6 1caf 34b2 e533 fab4 3434
00000030: 6739 07ae 7e30 e1b4 4f34 e0a3 d234 e034
00000040: 5d35 b5aa 6bb1 4ea8

in_c.0.1.weight f2 [4]
0.8003 0.9326 0.878 1.086
00000000: 673a 763b 063b 583c

in_c.0.1.bias f2 [4]
0.3083 0.691 0.121 -0.3147
00000000: ef34 8739 be2f 09b5

in_c.0.1.running_mean f2 [4]
-0.4048 0.03604 -0.4954 -1.382
00000000: 7ab6 9d28 edb7 87bd

in_c.0.1.running_var f2 [4]
3.62 1.502 2.809 10.875
00000000: 3d43 023e 9e41 7049

in_c.1.0.weight f2 [16, 4, 3, 3]
0.0828 -0.05746 0.1826 0.2319 0.1421 0.3298 0.2715 0.2386
0.0511 0.0571 -0.0248 -0.2162 -0.03204 -0.475 -0.02278 0.135
0.0691 -0.3638 -0.2876 -0.1871 -0.10455 -0.07904 -0.1195 -0.3335
0.312 0.6265 -0.01516 0.18 0.2432 0.1942 0.2423 -0.186
-0.1505 0.3271 -0.02397 0.0541 0.1735 0.03595 0.0724 -0.0817
0.137 0.197 -0.2915 -0.0583 -0.5264 0.1007 -0.08685 -0.09973
0.10724 -0.03165 -0.18 0.1746 0.194 0.2925 0.11444 0.1317
0.0841 -0.3093 -0.004726 -0.2136 0.0701 0.298 0.0809 -0.262
0.1437 0.05154 -0.168 -0.00402 0.1691 -0.1823 -0.11804 -0.02048
0.3115 0.005756 -0.02217 0.05438 -0.0884 -0.0757 -0.0803 0.1182
0.10156 -0.14 0.129 -0.1383 0.2219 0.3616 0.012276 0.1016
0.24 -0.1414 -0.1743 0.0817 0.2007 -0.2856 -0.4749 -0.0348
-0.189 -0.1594 -0.151 -0.1407 0.2147 0.12164 0.0122 0.0415
0.2476 -0.3655 0.04358 0.09235 0.05307 -0.312 -0.3064 0.233
0.02194 -0.074 0.03174 0.0453 0.0017605 -0.3196 -0.3198 0.1111
-0.307 -0.3516 -0.2515 -0.2947 -0.4998 -0.2795 0.0549 -0.2532
0.2314 0.1862 -0.1903 0.2097 0.2023 -0.09143 -0.0751 -0.02713
-0.02501 -0.1605 0.1927 0.271 -0.0992 0.1265 0.0629 -0.05576
0.101 0.2311 -0.1656 -0.06085 0.0276 -0.316 -0.149 -0.07733
-0.4087 -0.1158 -0.02498 0.216 0.0408 -0.05463 -0.03812 0.08246
0.1549 0.2499 -0.2148 -0.2747 -0.1072 -0.3784 -0.5166 -0.1666
0.0476 -0.1339 0.3555 -0.07074 0.0433 -0.0743 -0.11914 0.091
-0.1642 -0.109 0.2317 -0.2284 -0.2979 0.2133 0.05414 0.06323
0.4275 0.29 0.1482 0.3433 0.0912 0.1945 -0.129 0.00514
-0.11035 -0.05487 -0.3887 -0.01588 0.0182 -0.1395 -0.01588 -0.2488
-0.1874 -0.0804 -0.2339 -0.1703 -0.0943 -0.1897 0.02034 0.3215
0.0573 0.2554 -0.01965 0.08734 -0.1233 -0.0889 -0.2725 -0.04614
0.1459 0.06433 0.011185 -0.2255 -0.00821 -0.2354 0.1702 0.02385
0.1759 0.1252 0.10876 0.1239 -0.013214 0.2056 -0.0626 0.1549
0.04068 -0.1997 0.0562 -0.0657 -0.03705 -0.1414 0.001908 0.1456
0.10657 0.0363 0.0359 -0.01625 -0.00202 0.04434 0.4622 0.466
0.5386 0.2664 0.1836 0.08997 0.01791 -0.1455 -0.10406 -0.1503
00000000: 4d2d 5bab d831 6c33 8c30 4735 5834 a333
00000010: 8a2a 4f2b 59a6 ebb2 1aa8 9ab7 d5a5 5230
00000020: 6c2c d2b5 9ab4 fdb1 b1ae 0fad a6af 56b5
00000030: fe34 0339 c3a3 c331 c833 3732 c133 f4b1
00000040: d1b0 3c35 23a6 ed2a 8d31 9a28 a22c 3bad
00000050: 6230 4e32 aab4 76ab 36b8 722e 8fad 62ae
00000060: dd2e 0da8 c3b1 9631 3532 ae34 532f 3730
00000070: 622d f3b4 d79c d6b2 7d2c c534 2d2d 31b4
00000080: 9930 992a 60b1 1e9c 6931 d5b1 8eaf 3ea5
00000090: fc34 e51d ada5 f62a a8ad d8ac 24ad 912f
000000a0: 802e 7bb0 2130 6db0 1a33 c935 4922 812e
000000b0: ae33 86b0 94b1 3b2d 6c32 92b4 99b7 74a8
000000c0: 0cb2 1ab1 d5b0 81b0 df32 c92f 3f22 5029
000000d0: ec33 d9b5 9429 e92d cb2a feb4 e7b4 7533
000000e0: 9e25 bcac 1028 cc29 3617 1db5 1eb5 1c2f
000000f0: e9b4 a0b5 06b4 b7b4 ffb7 79b4 072b 0db4
00000100: 6833 f531 17b2 b632 7932 daad ceac f2a6
00000110: 67a6 23b1 2b32 5634 59ae 0c30 072c 23ab
00000120: 772e 6533 4db1 caab 1127 0eb5 c5b0 f3ac
00000130: 8ab6 69af 65a6 e932 3929 feaa e1a8 472d
00000140: f530 ff33 e0b2 65b4 dcae 0eb6 22b8 55b1
00000150: 182a 49b0 b035 87ac 8b29 c1ac a0af d32d
00000160: 41b1 faae 6a33 4fb3 c4b4 d332 ee2a 0c2c
00000170: d736 a434 be30 7e35 d62d 3932 21b0 431d
00000180: 10af 06ab 38b6 11a4 a924 77b0 11a4 f6b3
00000190: ffb1 25ad 7cb3 73b1 09ae 12b2 3525 2535
000001a0: 562b 1634 08a5 972d e4af b1ad 5cb4 e8a9
000001b0: ab30 1e2c ba21 37b3 34a0 88b3 7231 1b26
000001c0: a131 0230 f62e ee2f c4a2 9432 02ac f530
000001d0: 3529 64b2 322b 34ac bea8 86b0 d117 a930
000001e0: d22e a528 9828 29a4 2398 ad29 6537 7537
000001f0: 4f38 4334 e031 c22d 9624 a8b0 a9ae cfb0

in_c.1.1.weight f2 [16]
0.885 0.9136 0.9346 1.072 1.117 0.9204 1.135 1.116
1.053 1.236 1.021 1.217 1.25 1.205 1.027 1.085
00000000: 143b 4f3b 7a3b 4a3c 783c 5d3b 8a3c 773c
00000010: 363c f23c 163c de3c 003d d23c 1c3c 573c

in_c.1.1.bias f2 [16]
0.002415 0.005886 0.1641 0.4688 -0.06384 0.4387 0.01042 0.243
0.1475 0.009674 0.05588 -0.01222 -0.0931 0.1931 0.3086 0.1969
00000000: f218 071e 4031 8037 16ac 0537 5621 c733
00000010: b830 f420 272b 42a2 f5ad 2e32 f034 4d32

in_c.1.1.running_mean f2 [16]
0.1752 0.1748 0.3376 -1.847 -0.63 -0.2314 1.041 -0.3892
-0.4587 0.1836 -1.878 -0.5596 0.1754 -0.6035 0.6533 -0.473
00000000: 9b31 9831 6735 63bf 0ab9 68b3 2a3c 3ab6
00000010: 57b7 e031 83bf 7ab8 9d31 d4b8 3a39 91b7

in_c.1.1.running_var f2 [16]
1.118 0.597 0.7456 1.303 1.316 0.5415 1.02 0.7153
0.3525 0.5723 1.374 1.088 0.8164 0.4583 0.602 1.094
00000000: 793c c738 f739 363d 443d 5538 143c b939
00000010: a435 9438 7f3d 5a3c 883a 5537 d138 603c

stages.s1.b1.block.0.0.weight f2 [32, 16, 1, 1]
0.1313 -0.2646 0.1887 -0.05432 0.4102 0.1313 0.4976 0.01823
0.3396 0.1719 -0.0709 -0.01717 0.381 -0.07184 0.04333 0.1757
0.3408 -0.138 0.3186 -0.2316 0.02534 -0.1164 0.2495 0.2133
-0.4053 0.2004 -0.04312 0.4753 -0.09656 -0.0697 0.217 0.05246
-0.1565 0.3875 -0.2659 -0.04126 0.1214 0.3787 -0.0426 0.349
0.2379 -0.549 -0.3816 -0.2375 -0.006092 0.1372 0.4146 -0.3857
0.2683 0.3345 -0.1892 -0.338 -0.00581 0.4192 -0.2291 -0.0633
0.0904 -0.801 -0.0855 -0.501 0.584 -0.1494 0.01359 -0.5493
0.1125 -0.413 0.4507 0.369 0.3965 0.3645 -0.1244 -0.10034
0.1765 0.2808 -0.1103 -0.154 0.0806 -0.02827 0.581 -0.626
-0.2158 -0.01591 0.002666 0.1782 -0.167 -0.0694 0.1787 -0.0697
-0.3599 -0.2446 -0.0628 0.1599 -0.1119 -0.7983 -0.2218 0.1757
-0.2314 0.0955 0.02985 0.0967 0.1708 0.2141 0.1771 0.1499
0.0734 0.2089 -0.3435 0.28 -0.3628 0.6772 -0.208 -0.3633
-0.1241 -0.1405 -0.2401 -0.0625 -0.1054 -0.3484 0.233 -0.0914
0.2502 0.3096 -0.2673 -0.1713 0.585 -0.03186 0.1473 0.11804
0.213 -0.575 0.1816 0.09467 0.1162 0.06204 -0.1242 -0.2517
-0.1267 -0.3813 -0.4346 0.3071 0.297 0.3179 -0.3489 0.05652
0.0513 0.04425 -0.12024 0.11633 0.05356 -0.2467 -0.1661 0.6064
-0.4192 -0.3618 0.0998 -0.4287 0.3394 -0.116 -0.10364 -0.258
-0.1257 0.3389 -0.6104 -0.1017 0.04373 -0.2399 0.6533 0.3015
0.3928 0.00944 -0.09973 -0.1279 0.011215 0.1995 0.06537 -0.3271
0.3105 -0.01265 -0.0579 -0.1846 -0.5073 -0.2029 0.11334 0.2874
-0.2053 -0.4944 0.3608 0.2883 0.06555 -0.378 0.6226 -0.1816
-0.38 0.3289 -0.6533 -0.10834 -0.4966 0.2698 -0.277 -0.04456
0.0391 -0.1609 -0.496 0.4094 0.6855 -0.1067 -0.1914 0.007698
0.5537 0.132 0.1755 -0.2025 -0.2498 0.2465 0.353 0.2239
-0.384 -0.0691 -0.1685 -0.1189 0.2474 -0.2284 -0.3955 -0.695
-0.4788 0.1654 -0.0148 0.176 -0.1088 0.1544 -0.2134 -0.3862
0.6655 0.2617 -0.3528 0.4785 -0.2323 0.4011 0.95 -0.1549
0.1826 -0.1285 -0.4539 -0.05957 0.077 0.1323 -0.11304 -0.1176
-0.4575 -0.0746 -0.4688 -0.3838 0.1378 -0.0801 0.5947 -0.2168
00000000: 3430 3cb4 0a32 f4aa 9036 3430 f637 ab24
00000010: 6f35 8031 8aac 65a4 1936 99ac 8c29 9f31
00000020: 7435 6ab0 1935 69b3 7d26 73af fc33 d332
00000030: 7cb6 6a32 85a9 9b37 2eae 76ac f232 b72a
00000040: 02b1 3336 41b4 48a9 c52f 0f36 74a9 9635
00000050: 9d33 64b8 1bb6 9ab3 3d9e 6430 a236 2cb6
00000060: 4b34 5a35 0eb2 68b5 f39d b536 55b3 0dac
00000070: c92d 68ba 79ad 02b8 ac38 c8b0 f522 65b8
00000080: 332f 9cb6 3637 e735 5836 d535 f6af 6cae
00000090: a631 7e34 0faf eeb0 292d 3da7 a638 02b9
000000a0: e8b2 13a4 7619 b431 58b1 71ac b831 76ac
000000b0: c2b5 d4b3 05ac 1e31 29af 63ba 19b3 9f31
000000c0: 68b3 1d2e a427 302e 7731 da32 ab31 cc30
000000d0: b32c af32 7fb5 7b34 ceb5 6b39 a8b2 d0b5
000000e0: f1af 7fb0 afb3 00ac bfae 93b5 7533 d9ad
000000f0: 0134 f434 47b4 7bb1 ae38 14a8 b730 8e2f
00000100: d132 9ab8 d031 0f2e 702f f12b f3af 07b4
00000110: 0eb0 1ab6 f4b6 ea34 c134 1635 95b5 3c2b
00000120: 912a aa29 b2af 722f db2a e5b3 51b1 da38
00000130: b5b6 cab5 632e dcb6 6e35 6daf a2ae 21b4
00000140: 06b0 6c35 e2b8 82ae 9929 adb3 3a39 d334
00000150: 4936 d520 62ae 18b0 be21 6232 2f2c 3cb5
00000160: f834 7aa2 69ab e8b1 0fb8 7eb2 412f 9934
00000170: 92b2 e9b7 c635 9d34 322c 0cb6 fb38 d0b1
00000180: 14b6 4335 3ab9 efae f2b7 5134 6fb4 b4a9
00000190: 0129 26b1 f0b7 8d36 7c39 d4ae 20b2 e21f
000001a0: 6e38 3930 9e31 7bb2 feb3 e333 a635 2a33
000001b0: 25b6 6cac 64b1 9caf eb33 4fb3 54b6 8fb9
000001c0: a9b7 4b31 94a3 a231 f7ae f130 d4b2 2eb6
000001d0: 5339 3034 a5b5 a837 6fb3 6b36 9a3b f5b0
000001e0: d831 1db0 43b7 a0ab ee2c 3c30 3caf 87af
000001f0: 52b7 c6ac 80b7 24b6 6930 20ad c238 f0b2

stages.s1.b1.block.0.1.weight f2 [32]
0.9834 1.218 1.247 0.529 1.009 0.807 1.004 0.9595
1.16 0.989 0.6533 1.018 0.949 1.05 1.238 1.243
0.9854 0.7285 0.633 1.017 1.152 0.8555 1.439 0.754
1.172 0.814 0.985 1.421 1.206 0.897 0.9966 1.058
00000000: de3b df3c fd3c 3b38 093c 753a 043c ad3b
00000010: a43c e93b 3a39 123c 983b 333c f43c f93c
00000020: e23b d439 1039 113c 9c3c d83a c23d 083a
00000030: b03c 833a e13b af3d d33c 2d3b f93b 3b3c

stages.s1.b1.block.0.1.bias f2 [32]
-0.2308 -0.03165 -0.02325 0.3938 0.1326 0.1735 0.2157 -0.02615
0.1525 0.0853 -0.2333 0.0678 -0.1142 -0.1476 -0.05624 0.03001
0.1267 -0.148 0.4116 0.135 0.1978 0.3254 0.02968 0.064
0.11597 0.268 0.162 0.01522 0.091 0.1119 0.1921 0.1613
00000000: 63b3 0da8 f4a5 4d36 3e30 8d31 e732 b2a6
00000010: e130 762d 77b3 572c 4faf b9b0 33ab af27
00000020: 0e30 bcb0 9636 5230 5432 3535 9927 192c
00000030: 6c2f 4a34 2f31 cb23 d32d 292f 2632 2931

stages.s1.b1.block.0.1.running_mean f2 [32]
0.878 0.3762 0.05225 -0.6885 0.608 -0.721 0.406 0.002964
-0.1698 -0.4014 0.1433 -0.1409 -0.4893 -0.4119 0.6895 -0.59
-0.9463 0.01707 -0.278 -0.2654 -0.584 0.2491 1.297 0.9575
-0.7544 0.391 -1.1 -0.3088 0.4194 -0.6606 0.755 0.3135
00000000: 063b 0536 b02a 82b9 dd38 c5b9 7f36 121a
00000010: 6fb1 6cb6 9630 82b0 d4b7 97b6 8439 b8b8
00000020: 92bb 5f24 73b4 3fb4 acb8 f933 303d a93b
00000030: 09ba 4236 66bc f1b4 b636 49b9 0a3a 0435

stages.s1.b1.block.0.1.running_var f2 [32]
0.7705 0.585 0.653 1.8 0.6895 0.596 0.6846 0.593
0.501 0.62 0.6387 0.559 0.722 1.101 1.568 0.568
1.093 0.5005 1.098 0.6274 0.592 0.632 1.3125 0.585
0.5547 0.7314 0.4216 0.8125 0.619 0.858 0.62 1.391
00000000: 2a3a ae38 3939 333f 8439 c538 7a39 be38
00000010: 0238 f638 1c39 7938 c739 673c 463e 8b38
00000020: 5f3c 0138 643c 0539 bc38 0e39 403d ae38
00000030: 7038 da39 bf36 803a f438 dd3a f638 903d

stages.s1.b1.block.1.0.weight f2 [32, 1, 3, 3]
0.2166 0.3135 0.02231 0.3765 0.1294 0.042 -0.1492 -0.0455
-0.1508 -0.1354 0.1793 -0.0612 -0.041 0.1511 -0.08203 -0.04532
0.3628 0.0803 0.1599 0.01707 0.0695 -0.3118 -0.1071 -0.0901
-0.288 -0.1643 -0.144 -0.1428 -0.04593 -0.09705 0.2001 -0.02287
0.1292 0.2896 0.118 0.313 0.209 0.10046 -0.349 -0.1873
0.2015 -0.0693 -0.0637 0.3464 -0.10236 0.0974 -0.0608 -0.1516
-0.0291 -0.4229 0.2065 -0.1558 0.3599 -0.1969 -0.05072 0.2365
0.1111 -0.1393 -0.0458 -0.0956 0.06824 -0.2864 0.2803 0.0844
0.0918 -0.04086 -0.1288 -0.0713 -0.1354 -0.1726 -0.3428 -0.329
-0.03174 -0.07117 0.0971 0.04507 -0.1676 0.1191 -0.1089 -0.06573
0.3713 -0.1086 0.1362 0.1506 -0.1913 0.04214 0.0951 -0.2566
0.1561 0.1359 -0.04944 -0.01275 -0.10425 -0.2491 -0.04968 -0.07245
-0.05496 0.0797 0.0784 0.2786 0.07446 -0.3335 -0.1536 0.0777
-0.008736 -0.288 0.1765 0.04562 0.07825 0.05862 -0.04456 0.2158
0.241 0.1361 -0.2123 -0.07184 -0.2598 -0.0938 -0.1108 -0.1273
-0.01956 -0.156 -0.2233 0.1805 0.02882 -0.1876 -0.1506 -0.2893
-0.207 -0.0909 -0.1186 -0.213 -0.005577 -0.1749 -0.07996 0.0721
-0.3286 0.2379 -0.05817 0.1354 -0.10785 0.007767 0.1602 -0.02469
-0.02852 -0.12036 -0.04166 0.05048 0.13 0.3171 -0.1942 -0.001875
0.2502 -0.01279 0.0459 0.2255 -0.1989 -0.0417 0.0508 -0.2874
-0.1426 -0.06805 -0.3853 -0.1548 0.05786 0.2472 -0.0828 0.1036
0.10565 0.00791 0.338 -0.0772 0.06866 -0.1148 -0.08673 0.3713
0.229 -0.0603 -0.0415 0.09515 0.1725 0.0765 0.1499 -0.1556
-0.1793 -0.2493 -0.01311 -0.1458 -0.1453 0.1284 -0.03156 -0.1126
0.3896 -0.06995 0.02557 0.3496 -0.1132 -0.398 -0.0825 0.033
0.285 -0.05563 0.01342 0.08844 0.1974 -0.345 0.0961 -0.07336
-0.03096 -0.0411 0.323 0.09674 0.12164 -0.04602 0.01309 -0.10693
-0.13 -0.1119 0.02155 -0.07935 -0.04535 -0.004673 0.392 0.02914
0.483 0.07837 0.11993 -0.1133 0.233 0.11835 0.0719 0.05746
0.02373 -0.418 0.0696 -0.1593 0.1351 -0.03119 -0.02989 0.0056
-0.3418 0.1298 -0.5435 -0.0384 0.1766 0.226 -0.1405 -0.0796
0.1622 -0.10944 0.1741 0.06635 -0.1328 0.10895 0.158 0.00861
00000000: ee32 0435 b625 0636 2430 6029 c6b0 d3a9
00000010: d3b0 55b0 bd31 d5ab 3fa9 d630 40ad cda9
00000020: ce35 242d 1e31 5f24 732c fdb4 dbae c4ad
00000030: 9cb4 42b1 9cb0 92b0 e1a9 36ae 6732 dba5
00000040: 2230 a234 8d2f 0235 b032 6e2e 96b5 feb1
00000050: 7332 6fac 14ac 8b35 8dae 3c2e c8ab dab0
00000060: 73a7 c4b6 9c32 fcb0 c235 4db2 7eaa 9133
00000070: 1c2f 75b0 dda9 1eae 5e2c 95b4 7c34 672d
00000080: e02d 3ba9 1fb0 90ac 55b0 86b1 7cb5 44b5
00000090: 10a8 8eac 372e c529 5db1 9f2f f8ae 35ac
000000a0: f135 f3ae 5c30 d230 1fb2 6529 162e 1bb4
000000b0: ff30 5930 54aa 87a2 acae f9b3 5caa a3ac
000000c0: 09ab 1a2d 052d 7534 c42c 56b5 eab0 f92c
000000d0: 79a0 9cb4 a631 d729 022d 812b b4a9 e832
000000e0: b633 5b30 cbb2 99ac 28b4 01ae 17af 13b0
000000f0: 02a5 feb0 25b3 c731 6127 01b2 d2b0 a1b4
00000100: a0b2 d1ad 97af d1b2 b69d 99b1 1ead 9d2c
00000110: 42b5 9d33 72ab 5530 e7ae f41f 2031 52a6
00000120: 4da7 b4af 55a9 762a 2930 1335 37b2 ae97
00000130: 0134 8ca2 e029 3733 5db2 56a9 812a 99b4
00000140: 90b0 5bac 2ab6 f4b0 682b e933 4dad a12e
00000150: c32e 0d20 6835 f1ac 652c 59af 8dad f135
00000160: 5433 b8ab 50a9 172e 8531 e52c cc30 fbb0
00000170: bdb1 fab3 b6a2 aab0 a6b0 1c30 0aa8 35af
00000180: 3c36 7aac 8c26 9835 3faf 5eb6 48ad 3928
00000190: 8f34 1fab df22 a92d 5132 85b5 272e b2ac
000001a0: eda7 43a9 2b35 312e c92f e4a9 b422 d8ae
000001b0: 29b0 29af 8425 14ad cea9 c99c 4636 7627
000001c0: ba37 042d ad2f 40af 7533 932f 9a2c 5b2b
000001d0: 1326 b0b6 742c 19b1 5330 fca7 a7a7 bc1d
000001e0: 78b5 2730 59b8 eaa8 a731 3b33 7fb0 18ad
000001f0: 3131 01af 9231 3f2c 40b0 f92e 0e31 6920

stages.s1.b1.block.1.1.weight f2 [32]
0.9136 1.005 0.975 0.9785 1.1455 1.255 1.086 0.982
1.214 1.243 0.726 1.162 0.9824 0.9985 1.065 0.9136
0.7803 0.8545 0.9907 0.845 0.895 1.056 1.003 1.385
1.107 1.04 0.88 0.976 1.035 1.078 1.056 1.056
00000000: 4f3b 053c cd3b d43b 953c 053d 583c db3b
00000010: db3c f93c cf39 a63c dc3b fd3b 433c 4f3b
00000020: 3e3a d63a ed3b c33a 293b 393c 033c 8a3d
00000030: 6e3c 293c 0a3b cf3b 243c 503c 393c 393c

stages.s1.b1.block.1.1.bias f2 [32]
-0.1981 -0.05887 0.0803 0.04028 0.12384 -0.1185 0.2039 0.02757
0.01714 0.04007 -0.01619 -0.1663 -0.01463 0.1934 0.1919 -0.1519
-0.011696 -0.3308 0.1289 0.1659 0.08954 0.303 0.1443 0.043
0.2036 0.01535 -0.1555 0.09766 0.2223 0.1284 -0.1467 0.09406
00000000: 57b2 89ab 242d 2829 ed2f 96af 8632 0f27
00000010: 6324 2129 25a4 52b1 7ea3 3032 2432 dcb0
00000020: fda1 4bb5 2030 4f31 bb2d d934 9e30 8129
00000030: 8432 dc23 fab0 402e 1d33 1c30 b2b0 052e

stages.s1.b1.block.1.1.running_mean f2 [32]
0.2064 0.1642 -0.327 0.3167 0.0542 -0.1403 0.03824 -0.3567
0.0913 0.06415 -0.07336 -0.02783 0.03702 -0.2477 -0.4438 0.0323
0.1564 -0.0817 0.09753 0.165 -0.241 0.0693 0.09595 0.0669
0.2341 0.06396 -0.3267 0.1958 0.3245 -0.33 0.2316 -0.3745
00000000: 9b32 4131 3bb5 1135 f02a 7db0 e528 b5b5
00000010: d82d 1b2c b2ac 20a7 bd28 edb3 1ab7 2228
00000020: 0131 3bad 3e2e 4831 b6b3 6f2c 242e 482c
00000030: 7e33 182c 3ab5 4432 3135 48b5 6933 feb5

stages.s1.b1.block.1.1.running_var f2 [32]
0.3037 0.2812 0.345 0.0904 0.126 0.0416 0.1074 0.4312
0.136 0.0452 0.02731 0.0694 0.1927 0.1763 0.502 0.0569
0.0388 0.05716 0.08655 0.10175 0.2042 0.1393 0.2773 0.0976
0.2766 0.10785 0.11676 0.1666 0.2498 0.08826 0.3772 0.2354
00000000: dc34 8034 8535 c92d 0830 5329 e02e e636
00000010: 5a30 c929 fe26 712c 2b32 a431 0438 482b
00000020: f728 512b 8a2d 832e 8932 7530 7034 3f2e
00000030: 6d34 e72e 792f 5531 fe33 a62d 0936 8833

stages.s1.b1.block.2.0.weight f2 [16, 32, 1, 1]
0.39 -0.4636 -0.1848 0.519 0.0795 0.0943 0.0936 -0.6606
-0.0547 0.957 -0.691 -0.3179 -0.1456 0.8193 0.0357 -0.267
-0.3232 0.2646 -0.04068 0.00522 -0.2537 -0.2925 -0.1554 -0.422
0.3762 0.3662 0.2673 -0.4456 -0.02934 -0.0715 0.1346 0.5107
0.2109 -0.1393 -0.215 0.06836 -0.4617 -0.248 -0.5625 -0.0474
-0.401 -0.623 0.0402 -0.7734 -0.3672 0.05798 0.522 -0.0342
-0.523 0.538 -0.403 0.2961 -0.0907 -0.2477 0.3784 0.5107
-0.171 0.2683 -0.283 -0.04218 -0.286 0.505 0.17 0.2196
0.08093 0.2795 -0.2769 -0.2954 -0.2944 -0.614 0.7573 -0.3293
0.287 -0.3962 0.413 -0.0668 0.7163 -0.3855 0.1324 -0.544
-0.5093 0.1624 0.1874 -0.0827 0.205 0.7544 0.2627 0.165
0.1597 0.03696 -0.3389 0.2369 0.441 -0.8237 -0.03818 -0.033
-0.0891 0.3286 0.01153 0.12085 0.1514 -0.1271 -0.6396 -0.03342
-0.2542 -0.506 0.3018 -0.3013 0.6704 0.3762 -0.04834 -0.10156
-0.02376 -0.0377 0.536 -0.6167 0.1409 0.136 -1.02 -0.2922
0.2622 -0.4077 -0.3535 -0.419 0.0931 0.07947 0.5083 0.04773
-0.3762 -1.441 -0.3967 -0.05774 -0.098 -0.1075 -0.1982 0.1536
0.612 -0.0805 0.3062 -0.261 -0.5166 -0.3489 1.009 -0.01429
-0.04688 -0.4958 0.3616 -0.2018 -0.2847 0.02623 -0.039 0.2155
-0.333 0.02379 -0.02779 0.1235 -0.2085 0.2047 -0.1322 -0.5083
0.3997 0.02437 0.317 -0.2062 -0.1603 0.02457 -0.1848 0.06775
-0.02773 0.0006084 -0.373 -0.1659 0.0882 -0.1748 0.452 0.2925
-0.2365 -0.01255 -0.3474 0.3557 0.797 -0.6587 0.1406 -0.525
-0.862 -0.002777 -0.547 0.308 -0.3032 -0.0893 0.7803 -0.004097
-0.1282 0.4817 -0.5415 0.03918 0.6143 0.183 -0.3857 0.1395
-0.03214 0.005966 -0.03467 -0.4438 -0.3477 0.2113 0.1157 0.2566
1.073 0.0794 0.0779 -0.4297 0.754 -0.6743 -0.11884 -0.765
-0.367 -0.533 -0.2612 0.1782 -0.597 -0.0887 -0.2996 0.9937
0.471 -0.0263 0.0393 -0.1089 0.3892 0.4211 0.3174 -0.02058
0.05167 -0.469 -0.1643 0.3865 -0.3066 0.2213 -0.426 0.545
0.0682 -0.2732 0.03096 0.1616 -0.5522 -0.657 0.1288 -0.4658
-0.3484 -0.0488 0.1375 0.1048 -0.4656 0.582 0.2238 -0.304
00000000: 3d36 6bb7 eab1 2738 172d 092e fe2d 49b9
00000010: 00ab a83b 87b9 16b5 a9b0 8e3a 9228 46b4
00000020: 2cb5 3c34 35a9 581d 0fb4 aeb4 f9b0 c1b6
00000030: 0536 dc35 4734 21b7 83a7 93ac 4f30 1638
00000040: c032 75b0 e1b2 602c 63b7 f0b3 80b8 11aa
00000050: 6ab6 fcb8 2529 30ba e0b5 6c2b 2d38 61a8
00000060: 2fb8 4e38 73b6 bd34 cead edb3 0e36 1638
00000070: 79b1 4b34 87b4 66a9 93b4 0a38 7131 0733
00000080: 2e2d 7934 6eb4 bab4 b6b4 e9b8 0f3a 45b5
00000090: 9834 57b6 9c36 46ac bb39 2bb6 3d30 5ab8
000000a0: 13b8 3231 ff31 4bad 8f32 093a 3434 4831
000000b0: 1c31 bb28 6cb5 9533 0e37 97ba e3a8 39a8
000000c0: b4ad 4235 e721 bc2f d830 11b0 1eb9 47a8
000000d0: 11b4 0cb8 d434 d2b4 5d39 0536 30aa 80ae
000000e0: 15a6 d3a8 4a38 efb8 8230 5a30 14bc adb4
000000f0: 3234 86b6 a8b5 b4b6 f52d 162d 1138 1c2a
00000100: 05b6 c4bd 59b6 64ab 46ae e1ae 58b2 ea30
00000110: e538 27ad e634 2db4 22b8 95b5 093c 51a3
00000120: 00aa efb7 c935 75b2 8eb4 b726 fea8 e532
00000130: 54b5 1726 1da7 e72f acb2 8d32 3bb0 11b8
00000140: 6536 3d26 1235 99b2 21b1 4a26 eab1 562c
00000150: 19a7 fc10 f8b5 4fb1 a52d 98b1 3b37 ae34
00000160: 91b3 6da2 8fb5 b135 603a 45b9 8030 33b8
00000170: e5ba b099 60b8 ee34 dab4 b7ad 3e3a 329c
00000180: 1ab0 b537 55b8 0429 ea38 db31 2cb6 7730
00000190: 1da8 1c1e 70a8 1ab7 90b5 c332 682f 1b34
000001a0: 4b3c 152d fc2c e0b6 083a 65b9 9baf 1fba
000001b0: dfb5 44b8 2eb4 b431 c7b8 adad cbb4 f33b
000001c0: 8937 bca6 0829 f8ae 3a36 bd36 1435 45a5
000001d0: 9d2a 81b7 42b1 2f36 e8b4 1533 d1b6 5c38
000001e0: 5d2c 5fb4 ed27 2c31 6bb8 42b9 1f30 74b7
000001f0: 93b5 3faa 6630 b52e 73b7 a838 2933 ddb4

stages.s1.b1.block.2.1.weight f2 [16]
1.132 0.978 0.865 1.016 0.7817 0.8926 0.8486 0.8496
0.9814 0.8213 1.253 0.9756 1.113 0.7217 0.841 1.006
00000000: 873c d33b ec3a 103c 413a 243b ca3a cc3a
00000010: da3b 923a 033d ce3b 743c c639 ba3a 063c

stages.s1.b1.block.2.1.bias f2 [16]
0.1537 -0.005127 0.153 0.815 0.2219 0.2322 -0.11145 -0.04312
0.2288 0.2607 -0.1161 0.2313 0.111 0.2327 0.3123 0.3782
00000000: eb30 409d e530 853a 1a33 6e33 22af 85a9
00000010: 5233 2c34 6eaf 6733 1b2f 7233 ff34 0d36

stages.s1.b1.block.2.1.running_mean f2 [16]
0.3794 -0.9805 -0.0157 -0.5576 -0.6704 -0.582 -0.3965 -0.2844
0.6274 -0.4082 1.444 -1.112 -0.2888 -0.3826 0.7866 0.7876
00000000: 1236 d8bb 05a4 76b8 5db9 a8b8 58b6 8db4
00000010: 0539 88b6 c73d 73bc 9fb4 1fb6 4b3a 4d3a

stages.s1.b1.block.2.1.running_var f2 [16]
1.89 1.868 3.291 2.797 3.373 2.61 3.703 2.117
3.049 1.998 3.322 3.27 3.12 1.649 3.656 3.95
00000000: 8f3f 793f 9542 9841 bf42 3841 6843 3c40
00000010: 1942 fe3f a542 8a42 3d42 993e 5043 e643

stages.s1.b2.block.0.0.weight f2 [32, 16, 1, 1]
0.7075 0.05264 -0.2146 0.008354 0.005196 0.79 -0.5225 0.1842
-0.0936 0.1666 0.309 -0.29 -0.3042 -0.0534 0.358 -0.04507
0.0272 0.0459 -0.1381 -0.1282 0.0394 0.55 0.1296 0.0789
0.2878 -0.1592 -0.503 -0.5435 0.3254 -0.014 -0.05783 -0.1797
-0.3171 -0.4387 -0.0722 0.06964 0.1686 -0.263 -0.005455 0.2231
0.387 -0.1058 -0.09344 -1.013 0.2012 -0.3093 -0.12213 -0.2676
-0.7617 0.368 0.1107 0.4534 0.01648 0.1382 0.1344 0.289
-0.11163 0.4036 0.04062 0.2261 -0.1232 -0.4714 -0.2141 0.324
-0.09186 0.3835 0.03906 -0.867 -0.006042 0.2272 0.1064 -0.2352
0.0894 0.2693 -0.7534 0.0722 0.0007553 -0.299 -0.1156 -0.132
-0.273 0.1082 -0.0778 -0.353 -0.04666 -0.2251 -0.1763 -0.4182
-0.2434 0.1604 -0.2052 0.1438 -0.504 0.06183 0.2505 -0.367
-0.434 0.1656 0.1959 -0.0675 -0.06134 0.03735 -0.2373 0.01406
0.304 -0.0344 0.04025 0.111 0.1522 -0.2886 -0.3289 0.481
0.2037 -0.1752 -0.4653 0.796 0.4622 0.277 0.05255 0.0787
0.1522 0.10284 -0.105 -0.535 0.1721 -0.09174 -0.3367 -0.1929
0.00518 -0.10333 0.2988 -0.1539 0.00794 0.2698 0.1002 0.02022
0.05582 0.26 -0.00901 0.02444 -0.5166 0.521 -0.04694 -0.516
-0.1963 -0.098 -0.3699 0.5464 -0.11847 0.004314 0.03079 -0.404
-0.1813 -0.4731 0.02727 0.04523 -0.1224 -0.6157 -0.349 -0.1499
0.1192 0.3264 -0.3403 -0.08923 0.1587 -0.2715 0.05704 -0.7515
-0.01088 -0.1296 -0.5713 -0.2798 0.4302 -0.312 -0.3638 -0.4775
-0.4856 -0.02501 -0.006985 0.3696 0.2996 -0.296 -0.2181 0.11456
0.695 0.0555 0.2998 -0.1802 0.71 -0.0586 -0.00432 0.1543
-0.1887 0.005943 -0.085 -0.506 0.1991 0.3503 -0.2646 0.2081
-0.3413 -0.1824 -0.3313 0.05542 0.0489 -0.094 -0.432 -0.5664
0.1753 0.1332 -0.2047 -0.0786 0.685 -0.5444 -0.3667 -0.13
-0.2495 -0.0717 0.2416 -0.2079 -0.1692 -0.02676 -0.284 0.2578
0.2524 0.2441 -0.1619 0.315 -0.593 0.2008 -0.3967 -0.0899
0.2045 -0.4878 0.002357 -0.1525 0.1648 -0.2428 0.00717 0.002974
0.3298 -0.2568 -0.04053 -0.308 -0.6094 -0.4268 0.156 0.3762
-0.26 0.4707 0.01808 -0.1989 0.01327 0.0767 0.1183 -0.1761
00000000: a939 bd2a deb2 4720 521d 523a 2eb8 e531
00000010: fead 5531 f234 a4b4 deb4 d6aa ba35 c5a9
00000020: f726 e029 6bb0 1ab0 0b29 6638 2630 0d2d
00000030: 9b34 18b1 06b8 59b8 3535 2ba3 67ab c0b1
00000040: 13b5 05b7 9fac 752c 6531 35b4 969d 2433
00000050: 3136 c5ae fbad 0dbc 7032 f3b4 d1af 48b4
00000060: 18ba e335 162f 4137 3824 6c30 4d30 a034
00000070: 25af 7536 3329 3c33 e3af 8bb7 dab2 2f35
00000080: e1ad 2336 0029 f0ba 309e 4533 cf2e 87b3
00000090: b92d 4f34 07ba 9f2c 3012 c9b4 66af 39b0
000000a0: 5eb4 ed2e fbac a6b5 f9a9 34b3 a4b1 b1b6
000000b0: cab3 2231 91b2 9a30 08b8 ea2b 0234 dfb5
000000c0: f2b6 4d31 4532 52ac daab c828 98b3 3323
000000d0: dd34 67a8 2729 1b2f df30 9eb4 43b5 b237
000000e0: 8532 9bb1 72b7 5e3a 6537 6f34 ba2a 092d
000000f0: df30 952e b8ae 48b8 8231 dfad 63b5 2cb2
00000100: 4e1d 9dae c834 edb0 1120 5134 6a2e 2d25
00000110: 252b 2934 9da0 4226 22b8 2b38 02aa 21b8
00000120: 48b2 46ae ebb5 5f38 95af 6b1c e227 77b6
00000130: cdb1 92b7 fb26 ca29 d5af edb8 96b5 ccb0
00000140: a12f 3935 72b5 b6ad 1431 58b4 4d2b 03ba
00000150: 92a1 26b0 92b8 7ab4 e236 feb4 d2b5 a4b7
00000160: c5b7 67a6 279f ea35 cb34 bcb4 fbb2 552f
00000170: 8f39 1b2b cc34 c4b1 ae39 80ab 6c9c f030
00000180: 0ab2 161e 71ad 0cb8 5f32 9b35 3cb4 a932
00000190: 76b5 d6b1 4db5 182b 422a 04ae e9b6 88b8
000001a0: 9c31 4330 8db2 08ad 7b39 5bb8 deb5 29b0
000001b0: fcb3 97ac bb33 a7b2 6ab1 daa6 8bb4 2034
000001c0: 0a34 d033 2eb1 0a35 beb8 6d32 59b6 c1ad
000001d0: 8b32 ceb7 d418 e1b0 4631 c5b3 581f 171a
000001e0: 4735 1cb4 30a9 eeb4 e0b8 d4b6 fe30 0536
000001f0: 29b4 8837 a124 5db2 cb22 e92c 922f a3b1

stages.s1.b2.block.0.1.weight f2 [32]
1.062 1.098 1.216 1.179 0.8896 0.994 1.034 1.139
0.6484 0.7974 0.713 1.2295 0.4678 1.588 1.068 1.21
1.161 0.6045 1.243 1.625 1.356 1.015 1.683 0.8164
0.5737 1.221 1.11 1.191 1.316 0.865 1.125 1.245
00000000: 3f3c 643c dd3c b73c 1e3b f43b 233c 8e3c
00000010: 3039 613a b439 eb3c 7c37 5a3e 463c d73c
00000020: a53c d638 f93c 803e 6d3d 0f3c bb3e 883a
00000030: 9738 e23c 713c c43c 443d ec3a 803c fb3c

stages.s1.b2.block.0.1.bias f2 [32]
-0.01575 0.1299 -0.1765 0.06696 0.1523 0.11127 -0.0423 0.2335
0.3577 0.4211 0.2827 0.03796 0.4226 -0.03183 -0.0848 0.11676
-0.154 0.444 0.10284 0.03674 0.08813 0.03494 0.06143 0.226
0.4155 0.1724 0.08307 0.058 -0.01372 -0.1854 0.12396 0.01478
00000000: 08a4 2830 a6b1 492c e030 1f2f 6aa9 7933
00000010: b935 bd36 8634 dc28 c336 13a8 6dad 792f
00000020: eeb0 1b37 952e b428 a42d 7928 dd2b 3b33
00000030: a636 8431 512d 6d2b 06a3 efb1 ef2f 9123

stages.s1.b2.block.0.1.running_mean f2 [32]
0.973 -0.2712 -1.551 0.9004 -1.687 -1.905 0.07404 0.9053
-0.036 -1.464 -2.127 1.38 -2.1 -0.7236 -0.2588 -0.8965
1.995 -0.8545 -0.996 -0.48 -0.5107 -1.092 0.962 0.5557
2.014 -0.3774 -0.3264 1.493 1.424 0.8813 1.005 -1.752
00000000: c93b 57b4 34be 343b bfbe 9fbf bd2c 3e3b
00000010: 9ca8 dbbd 41c0 853d 33c0 cab9 24b4 2cbb
00000020: fb3f d6ba f8bb aeb7 16b8 5ebc b23b 7238
00000030: 0740 0ab6 39b5 f93d b23d 0d3b 053c 02bf

stages.s1.b2.block.0.1.running_var f2 [32]
1.41 1.615 1.383 1.809 1.443 1.524 1.22 2.092
0.998 2.18 2.588 2.043 2.002 1.911 0.8193 1.124
1.067 3.191 2.645 1.604 1.12 1.037 1.623 1.383
1.48 1.531 1.645 1.538 1.667 1.362 2.246 1.983
00000000: a43d 763e 883d 3c3f c63d 193e e13c 2f40
00000010: fc3b 5c40 2d41 1640 0140 a53f 8e3a 7f3c
00000020: 453c 6242 4a41 6a3e 7b3c 263c 7e3e 883d
00000030: ec3d 203e 943e 273e ab3e 733d 7e40 ef3f

stages.s1.b2.block.1.0.weight f2 [32, 1, 3, 3]
0.4797 -0.06433 0.06067 -0.0899 -0.1741 -0.21 0.1394 -0.202
0.1436 -0.04324 0.12476 -0.00976 0.04462 -0.0952 -9.36e-05 0.3977
0.3494 0.3423 0.0331 -0.198 0.0681 0.2428 -0.2732 -0.1671
0.11194 0.1294 0.00784 -0.0958 -0.1414 -0.3508 -0.1289 0.1339
-0.514 -0.03787 0.119 -0.088 -0.11945 -0.03952 0.1032 -0.4365
-0.04773 0.2803 -0.04126 -0.04132 0.234 -0.2079 -0.2081 0.1344
0.1516 -0.02617 0.3416 -0.01671 -0.0757 0.1332 -0.04834 -0.02686
0.05713 -0.1499 -0.1877 -0.1812 0.00532 -0.199 -0.1593 0.1844
-0.03546 -0.2627 0.1951 0.0006957 -0.2124 0.3103 -0.1677 -0.2062
0.03326 -0.016 -0.0456 0.000331 0.183 -0.254 -0.2754 0.1737
-0.2395 -0.10535 0.04333 0.06116 0.06323 0.08215 0.1659 0.09033
0.371 0.3196 0.02908 0.1384 0.01797 -0.3298 -0.1632 -0.3984
0.0879 0.07043 0.0332 0.2654 -0.1326 0.0932 0.257 -0.2673
-0.1375 0.172 0.1768 -0.0885 0.1366 0.2035 0.3635 -0.0991
0.06006 0.1247 -0.2155 -0.2751 -0.143 0.05316 -0.265 -0.12274
0.1009 -0.339 -0.07947 0.0377 0.0639 -0.3035 -0.3242 -0.3093
-0.394 0.1383 0.2083 0.161 -0.097 -0.0477 -0.04785 0.02782
-0.0383 0.0247 0.186 0.2135 0.1809 0.1758 0.2233 0.1802
-0.1381 -0.10406 -0.2937 -0.269 -0.2294 -0.3457 0.05038 0.10504
-0.0806 -0.3237 -0.2224 -0.3013 0.1918 0.1938 0.2798 -0.0922
-0.109 -0.09937 -0.2496 0.063 0.2139 -0.1833 0.0506 0.2216
-0.3032 0.2023 0.1532 -0.0084 -0.01877 0.09863 -0.08386 0.004036
-0.1375 -0.406 -0.03735 -0.263 0.05908 -0.04633 -0.293 -0.111
-0.014626 -0.2119 -0.03867 -0.01904 -0.3784 -0.04385 -0.342 -0.003233
-0.01502 -0.0333 -0.10626 0.373 -0.01293 0.1406 -0.3867 -0.2052
-0.3398 -0.1426 0.01826 -0.2373 0.07135 0.03287 0.1344 -0.1296
-0.3406 -0.43 0.1471 0.2107 0.2073 0.2126 0.2189 0.12067
0.004158 0.001769 0.002691 -0.2183 -0.1405 -0.2847 -0.10034 -0.0784
0.004417 0.2249 -0.0564 0.295 -0.0203 -0.2354 -0.0556 -0.09357
-0.1897 0.2021 0.0767 -0.0004604 -0.0458 0.2463 0.2893 0.3542
0.0719 0.1009 0.2244 -0.0748 -0.2273 -0.1534 -0.1353 -0.2081
-0.2408 0.09106 -0.05737 -0.06027 0.2556 0.1952 0.02193 0.1646
00000000: ad37 1eac c42b c1ad 92b1 b8b2 7630 77b2
00000010: 9830 89a9 fc2f ffa0 b629 18ae 2286 5d36
00000020: 9735 7a35 3d28 56b2 5c2c c533 5fb4 59b1
00000030: 2a2f 2430 0420 22ae 86b0 9db5 20b0 4930
00000040: 1db8 d9a8 9e2f a2ad a5af 0fa9 9b2e fcb6
00000050: 1caa 7c34 48a9 4aa9 7d33 a7b2 a9b2 4d30
00000060: da30 b3a6 7735 47a4 d8ac 4330 30aa e0a6
00000070: 502b ccb0 02b2 ccb1 731d 5eb2 19b1 e731
00000080: 8aa8 34b4 3e32 b311 ccb2 f734 5eb1 99b2
00000090: 4228 19a4 d6a9 6c0d db31 10b4 68b4 8f31
000000a0: aab3 beae 8c29 d42b 0c2c 422d 4f31 c82d
000000b0: f035 1d35 7227 6e30 9a24 47b5 39b1 60b6
000000c0: a02d 822c 4028 3f34 3eb0 f72d 1d34 47b4
000000d0: 66b0 8131 a831 aaad 5f30 8332 d135 58ae
000000e0: b02b fb2f e5b2 67b4 93b0 ce2a 3db4 dbaf
000000f0: 752e 6db5 16ad d328 172c dbb4 30b5 f3b4
00000100: 4eb6 6d30 aa32 2731 35ae 1baa 20aa 1f27
00000110: e7a8 5326 f431 d532 ca31 a031 2533 c431
00000120: 6bb0 a9ae b3b4 4eb4 57b3 88b5 732a b92e
00000130: 29ad 2eb5 1eb3 d2b4 2332 3432 7a34 e7ad
00000140: faae 5cae fdb3 082c d832 deb1 7a2a 1733
00000150: dab4 7932 e730 4da0 cea4 502e 5ead 221c
00000160: 66b0 7fb6 c8a8 35b4 902b eea9 b0b4 1baf
00000170: 7da3 c8b2 f3a8 e0a4 0eb6 9da9 79b5 9f9a
00000180: b1a3 43a8 cdae f835 9fa2 8030 30b6 91b2
00000190: 70b5 90b0 ad24 98b3 912c 3528 4d30 26b0
000001a0: 73b5 e1b6 b530 be32 a232 ce32 0133 b92f
000001b0: 421c 3f17 8319 fcb2 7fb0 8eb4 6cae 05ad
000001c0: 861c 3233 38ab b834 32a5 88b3 1eab fdad
000001d0: 12b2 7832 e92c 8b8f dda9 e233 a134 ab35
000001e0: 9a2c 752e 2e33 caac 46b3 e9b0 54b0 a9b2
000001f0: b5b3 d42d 58ab b7ab 1734 3f32 9d25 4431

stages.s1.b2.block.1.1.weight f2 [32]
1.04 0.8574 0.857 1.067 1.072 1.164 0.7812 1.344
1.075 1.072 1.17 1.1875 1.162 0.969 0.9043 0.859
0.9424 1.14 0.9556 0.917 1.088 0.7725 1.09 1.138
0.948 1.106 1.094 0.976 0.7437 0.9194 1.249 1.017
00000000: 293c dc3a db3a 453c 4a3c a83c 403a 603d
00000010: 4d3c 4a3c ae3c c03c a63c c13b 3c3b df3a
00000020: 8a3b 8f3c a53b 563b 5a3c 2e3a 5c3c 8d3c
00000030: 963b 6d3c 603c cf3b f339 5b3b ff3c 113c

stages.s1.b2.block.1.1.bias f2 [32]
0.3818 0.06744 0.0589 0.1807 0.394 0.1015 0.0527 0.0588
0.1686 0.09625 0.00946 0.341 0.127 0.0403 -0.02745 0.10944
0.285 0.04117 0.1726 0.2218 0.1132 0.00467 0.03543 -0.3474
0.05597 0.03622 0.1646 -0.05988 0.1687 0.02332 0.4043 0.1799
00000000: 1c36 512c 8a2b c831 4e36 7f2e bf2a 872b
00000010: 6531 292e d820 7535 1030 2929 07a7 012f
00000020: 8f34 4529 8631 1933 3f2f c81c 8928 8fb5
00000030: 2a2b a328 4431 aaab 6631 f825 7836 c231

stages.s1.b2.block.1.1.running_mean f2 [32]
0.01682 0.4875 -0.01598 -0.5117 -0.05322 0.0909 -0.314 -0.1161
-0.1683 0.631 -0.2235 0.1306 0.0665 -0.4912 -0.233 0.585
-0.4165 -0.226 0.09174 -0.4836 -0.495 -0.0151 -0.6323 0.0745
-0.3335 0.02354 0.5317 -0.4148 0.6587 0.1447 -0.3477 -0.26
00000000: 4e24 cd37 17a4 18b8 d0aa d12d 06b5 6eaf
00000010: 63b1 0c39 27b3 2e30 422c dcb7 75b3 ae38
00000020: aab6 3bb3 df2d bdb7 ecb7 bba3 0fb9 c52c
00000030: 56b5 0726 4138 a3b6 4539 a130 90b5 29b4

stages.s1.b2.block.1.1.running_var f2 [32]
0.1836 0.5405 0.05896 0.3264 0.09155 0.05322 0.1326 0.1824
0.1038 0.1343 0.0616 0.3801 0.04807 0.2947 0.3577 0.4568
0.6694 0.10394 0.197 0.3474 0.2808 0.11646 0.875 0.2556
0.0902 0.09143 0.2268 0.4258 0.3945 0.1853 0.2983 0.1059
00000000: e031 5338 8c2b 3935 dc2d d02a 3e30 d631
00000010: a52e 4c30 e32b 1536 272a b734 b935 4f37
00000020: 5b39 a72e 4e32 8f35 7e34 742f 003b 1734
00000030: c62d da2d 4233 d036 5036 ee31 c634 c72e

stages.s1.b2.block.2.0.weight f2 [16, 32, 1, 1]
-0.208 0.2788 -0.2717 0.3606 0.1969 -0.3394 -0.0201 0.1619
0.1843 -0.0814 0.281 -0.4016 -0.6694 -0.1035 0.5835 -0.4072
-0.2197 0.804 -0.385 -0.05048 0.6284 0.098 -0.02168 0.2458
0.1829 -0.2803 -0.3914 0.568 -0.1157 0.1183 -0.04608 -0.2617
0.3838 -0.3435 0.2013 0.43 -0.6577 0.1289 0.6333 -0.5107
0.337 0.6694 -0.0544 -0.2717 -0.0348 -0.0842 -0.1829 -0.05487
0.412 -0.52 -0.3313 0.04614 0.3552 0.1743 0.421 0.6416
0.584 -0.1686 0.4475 0.3928 -0.363 0.1355 -0.12213 0.2686
0.157 0.5044 0.1732 0.4507 -0.03056 0.2144 -0.496 0.9365
-0.7485 -0.0827 -0.2455 -0.00744 0.591 0.4932 0.8535 -0.431
-0.5103 -0.12244 -0.2852 -0.06207 0.004322 0.10645 -0.7583 0.007866
0.692 -0.531 0.1062 -0.4302 0.527 -0.1106 0.2231 -0.2367
-0.4368 0.0414 0.1449 0.4153 -0.0846 0.2654 -0.04736 -0.1251
0.4214 0.716 0.02365 0.2764 -0.269 -0.299 -0.3057 -0.265
-0.21 0.07043 0.6943 0.1226 -0.369 -0.5117 -0.02554 0.2238
-0.06012 0.513 0.4634 0.0635 0.1476 -0.332 0.1395 -0.061
0.0969 -0.6367 0.3586 0.1957 -0.1881 0.2134 0.772 0.2847
-0.4875 0.4387 -0.54 -0.6255 -0.5264 -0.0629 -0.09674 -0.3225
-0.09283 -0.5894 0.2986 0.1781 0.828 0.1484 -0.1418 0.1315
0.2407 0.852 0.01518 -0.1486 0.1448 -0.749 0.4875 -0.344
-0.4204 -0.29 -0.1506 -0.4119 -0.3809 0.945 -0.12317 0.1897
-0.6035 -0.2346 0.0956 -0.51 -0.3047 -0.1776 0.8916 -0.2417
0.1448 -0.002165 0.3835 0.4253 0.7646 -0.06476 0.2455 0.3542
0.13 -0.1554 -0.1672 0.05865 0.065 -0.451 -0.5366 -0.07355
-0.2917 0.6733 -0.222 -0.506 -0.4219 0.3423 0.52 -0.2424
0.576 -0.173 0.389 0.06537 0.203 0.004772 -0.1736 0.443
-1.316 0.07043 0.1729 -0.212 0.05722 0.554 0.2135 0.244
-0.3262 0.532 0.3508 -0.479 -0.03198 0.1377 -0.524 0.08356
-0.1699 0.565 0.3608 0.2485 0.2346 0.01479 0.1567 0.868
-0.0474 0.129 0.5884 -0.01062 -0.785 -0.7705 -0.162 0.03445
-0.721 -0.616 -0.1066 0.547 0.3882 0.1324 0.602 0.3186
-0.4019 0.001663 -0.314 -0.1659 -0.415 0.001057 0.618 0.3904
00000000: a8b2 7634 59b4 c535 4d32 6eb5 25a5 2e31
00000010: e631 36ad 7f34 6db6 5bb9 a0ae ab38 84b6
00000020: 08b3 6f3a 29b6 76aa 0739 462e 8da5 de33
00000030: da31 7cb4 43b6 8b38 68af 922f e6a9 30b4
00000040: 2436 7fb5 7132 e136 43b9 2030 1139 16b8
00000050: 6435 5b39 f7aa 59b4 74a8 64ad dab1 06ab
00000060: 9836 29b8 4db5 e829 af35 9431 bc36 2239
00000070: ac38 65b1 2937 4936 cfb5 5630 d1af 4c34
00000080: 0631 0938 8b31 3637 d3a7 dc32 f0b7 7e3b
00000090: fdb9 4bad dbb3 9e9f ba38 e437 d43a e5b6
000000a0: 15b8 d6af 90b4 f2ab 6d1c d02e 11ba 0720
000000b0: 8939 3fb8 cc2e e2b6 3738 14af 2433 93b3
000000c0: fdb6 4d29 a330 a536 6aad 3f34 10aa 01b0
000000d0: be36 ba39 0e26 6c34 4eb4 c9b4 e4b4 3db4
000000e0: b8b2 822c 8e39 d92f e7b5 18b8 8aa6 2933
000000f0: b2ab 1b38 6a37 102c b930 50b5 7730 cfab
00000100: 342e 18b9 bd35 4332 05b2 d432 2d3a 8e34
00000110: cdb7 0537 52b8 01b9 36b8 07ac 31ae 29b5
00000120: f1ad b7b8 c734 b331 a03a c030 8ab0 3530
00000130: b433 d13a c623 c1b0 a230 feb9 cd37 81b5
00000140: bab6 a4b4 d2b0 97b6 18b6 8f3b e2af 1232
00000150: d4b8 82b3 1e2e 14b8 e0b4 afb1 223b bcb3
00000160: a230 6f98 2336 ce36 1e3a 25ac db33 ab35
00000170: 2930 f9b0 5ab1 822b 292c 37b7 4bb8 b5ac
00000180: abb4 6339 1bb3 0cb8 c0b6 7a35 2938 c2b3
00000190: 9c38 89b1 3936 2f2c 7f32 e31c 8eb1 1737
000001a0: 44bd 822c 8831 c9b2 532b 6f38 d532 cf33
000001b0: 38b5 4238 9d35 aab7 18a8 6830 31b8 592d
000001c0: 70b1 8538 c635 f433 8233 9323 0431 f23a
000001d0: 11aa 2130 b538 70a1 48ba 2aba 2fb1 6928
000001e0: c5b9 eeb8 d3ae 6038 3636 3d30 d138 1935
000001f0: 6eb6 d016 06b5 4fb1 a4b6 5414 f238 3f36

stages.s1.b2.block.2.1.weight f2 [16]
1.253 1.098 0.9175 0.774 0.8584 1.048 0.8623 1.282
1.074 1.237 1.129 1.08 0.678 0.902 0.9673 1.572
00000000: 033d 643c 573b 313a de3a 313c e63a 213d
00000010: 4c3c f33c 843c 523c 6d39 373b bd3b 4a3e

stages.s1.b2.block.2.1.bias f2 [16]
0.11945 -0.167 0.2255 0.2208 0.1027 -0.10046 0.010666 -0.4128
-0.01941 0.06537 0.3726 0.2386 0.3015 0.3743 0.004166 0.1906
00000000: a52f 58b1 3733 1133 932e 6eae 7621 9bb6
00000010: f8a4 2f2c f635 a333 d334 fd35 441c 1932

stages.s1.b2.block.2.1.running_mean f2 [16]
-0.11334 0.9775 0.4282 0.7827 0.2104 -0.6416 -0.2644 0.8223
0.137 -0.626 -2.074 -2.252 -0.668 -2.041 0.385 0.65
00000000: 41af d23b da36 433a bc32 22b9 3bb4 943a
00000010: 6230 02b9 26c0 81c0 58b9 15c0 2936 3339

stages.s1.b2.block.2.1.running_var f2 [16]
1.623 1.518 2.303 1.72 3.443 2.365 3.162 2.064
1.729 3.002 3.357 3.457 3.047 2.174 2.363 2.947
00000000: 7e3e 123e 9b40 e13e e342 bb40 5342 2140
00000010: ea3e 0142 b742 ea42 1842 5940 ba40 e541

stages.s1.b3.block.0.0.weight f2 [32, 16, 1, 1]
-0.244 -0.296 -0.2463 0.02869 -0.2163 -0.0806 0.2449 0.12024
-0.4238 0.4634 0.02248 0.346 0.2988 -0.1092 -0.443 -0.2218
-0.03757 0.2194 0.155 0.1295 0.2083 0.1564 -0.1284 0.08417
0.2101 0.04208 -0.046 -0.05905 0.019 -0.657 -0.4329 -0.8267
-0.05887 -0.0649 -0.1857 0.2495 -0.2664 0.03522 1.412 0.5938
-0.6577 0.4165 -0.06213 0.2654 -0.0786 0.04572 0.1642 -0.1462
-0.03412 0.309 -0.264 0.6357 0.10284 -0.4006 -0.05328 -0.3145
-0.00514 0.2273 -0.3 -0.01378 -0.4946 0.3381 -0.06 -0.08435
-0.010864 0.3948 0.2216 -0.0002325 -0.05246 0.0903 -0.508 -0.2737
0.2695 -0.4229 0.8223 -0.2042 0.4927 -0.3438 -0.1523 -0.2279
0.04358 -0.4624 0.1509 -0.364 -0.35 -0.3723 -0.3616 -0.006603
-0.3572 0.4006 0.2966 -0.6064 0.1832 -0.295 0.3757 0.4333
0.1028 0.1536 -0.02025 0.2566 -0.1544 0.2167 0.0669 0.5527
0.04572 -0.44 0.4707 0.00782 0.01406 -0.6206 0.3135 -0.03876
-0.6 -0.5474 -0.1489 -0.5576 -0.2188 0.2247 -0.0875 -0.05023
-0.1519 -0.271 -0.2196 0.4275 -0.02637 -0.1086 0.06415 -0.1299
0.1154 0.3413 -0.2345 -0.1676 0.1349 0.1901 -0.2203 0.7476
0.3293 -0.292 0.1414 -0.2258 0.839 0.2869 -0.06143 -0.1367
0.656 -0.1278 -0.0354 -0.3196 -0.0406 0.01682 0.2786 0.262
0.1565 0.2356 0.5454 -0.1833 -0.02202 0.4055 -0.0855 -0.0304
0.2454 0.6064 -0.3552 0.1464 0.1996 0.553 -0.0322 0.06226
0.02682 -0.0747 0.01519 -0.0575 0.2048 0.4963 0.7246 0.08923
0.03006 0.247 -0.0927 -0.03778 -0.07135 0.3987 0.1664 0.583
0.31 -0.2024 -0.275 0.19 0.3254 0.1926 0.0741 -0.01298
0.2607 -0.2471 0.09485 -0.2408 -0.005085 0.1345 0.1523 -0.1744
-0.0801 -0.002552 -0.1659 0.10297 0.8633 -0.4248 0.03665 -0.1549
-0.1953 0.254 -0.05557 0.3962 0.2546 0.2188 0.2854 0.724
-0.0977 0.4011 0.1964 0.3347 0.3203 0.006237 0.4087 -0.1432
0.05798 0.03192 0.0408 0.2974 0.08124 0.2294 0.04407 -0.0010395
-0.2008 0.429 -0.1266 0.76 0.4753 -0.3552 -0.5054 -0.3716
0.1431 -0.1842 0.10706 -0.1454 0.1031 -0.0365 0.5303 0.793
-0.05316 0.1891 -0.03577 -0.03568 0.1484 -0.1434 -0.0973 0.2903
00000000: cfb3 bcb4 e2b3 5827 ecb2 29ad d633 b22f
00000010: c8b6 6a37 c125 8935 c834 fdae 17b7 19b3
00000020: cfa8 0533 f630 2530 aa32 0131 1cb0 632d
00000030: b932 6329 e3a9 8fab dd24 42b9 edb6 9dba
00000040: 89ab 27ac f1b1 fc33 43b4 8228 a63d c038
00000050: 43b9 aa36 f4ab 3f34 08ad da29 4131 aeb0
00000060: 5ea8 f234 39b4 1639 952e 69b6 d2aa 08b5
00000070: 439d 4633 cdb4 0ea3 eab7 6935 aeab 66ad
00000080: 90a1 5136 1733 9e8b b7aa c72d 10b8 61b4
00000090: 5034 c4b6 943a 89b2 e237 80b5 e0b0 4bb3
000000a0: 9429 66b7 d430 d3b5 9ab5 f5b5 c9b5 c39e
000000b0: b7b5 6936 bf34 dab8 dd31 b8b4 0336 ef36
000000c0: 942e ea30 2fa5 1b34 f1b0 ef32 482c 6c38
000000d0: da29 0ab7 8837 0120 3323 f7b8 0435 f6a8
000000e0: cdb8 61b8 c4b0 76b8 00b3 3133 9aad 6eaa
000000f0: dcb0 56b4 07b3 d736 c0a6 f3ae 1b2c 28b0
00000100: 632f 7635 81b3 5db1 5130 1532 0db3 fb39
00000110: 4535 acb4 8630 3ab3 b63a 9734 ddab 60b0
00000120: 3f39 17b0 88a8 1db5 32a9 4e24 7534 3134
00000130: 0231 8a33 5d38 deb1 a3a5 7d36 79ad c8a7
00000140: da33 da38 afb5 af30 6332 6d38 1fa8 f82b
00000150: de26 c8ac c723 5cab 8e32 f137 cc39 b62d
00000160: b227 e733 efad d6a8 91ac 6136 5331 aa38
00000170: f634 7ab2 66b4 1432 3535 2a32 be2c a5a2
00000180: 2c34 e8b3 122e b5b3 359d 4e30 e030 95b1
00000190: 20ad 3a99 4fb1 972e e83a ccb6 b128 f5b0
000001a0: 40b2 1034 1dab 5736 1334 0033 9134 cb39
000001b0: 41ae 6b36 4932 5b35 2035 631e 8a36 95b0
000001c0: 6c2b 1628 3929 c234 332d 5733 a429 4294
000001d0: 6db2 dd36 0db0 143a 9b37 afb5 0bb8 f2b5
000001e0: 9430 e5b1 da2e a7b0 992e aca8 3e38 583a
000001f0: ceaa 0d32 94a8 91a8 c030 97b0 3aae a534

stages.s1.b3.block.0.1.weight f2 [32]
1.11 0.8906 1.209 1.036 1.136 1.281 1.517 1.203
1.224 0.6074 0.546 1.048 1.116 0.7817 0.8877 1.181
1.112 1.021 1.142 0.4583 0.7837 1.231 0.9746 1.1455
1.112 1.092 1.043 0.948 1.191 1.032 0.8213 0.602
00000000: 713c 203b d63c 253c 8b3c 203d 113e d03c
00000010: e53c dc38 5e38 313c 773c 413a 1a3b b93c
00000020: 733c 163c 913c 5537 453a ed3c cc3b 953c
00000030: 733c 5e3c 2c3c 963b c43c 213c 923a d138

stages.s1.b3.block.0.1.bias f2 [32]
-0.1142 0.131 0.1163 0.10486 0.04285 0.1708 -0.0483 0.07605
-0.0405 -0.3232 -0.407 -0.0731 -0.0639 0.2769 0.188 -0.06125
-0.2274 -0.3994 -0.2258 0.4363 0.266 -0.0909 -0.134 -0.002216
-0.0795 0.1522 0.11835 0.1772 0.1288 0.3064 0.2412 0.4285
00000000: 4faf 3130 712f b62e 7c29 7731 2faa de2c
00000010: 2fa9 2cb5 83b6 aeac 17ac 6e34 0432 d7ab
00000020: 47b3 64b6 3ab3 fb36 4234 d1ad 4ab0 8a98
00000030: 17ad df30 932f ac31 1f30 e734 b833 db36

stages.s1.b3.block.0.1.running_mean f2 [32]
-0.78 -1.64 1.417 0.095 0.01146 -1.188 0.723 -2.783
1.416 1.506 3.041 1.571 -0.0193 3.41 1.055 1.306
2.281 2.781 -2.098 -2.516 0.2983 -1.23 2.086 -0.744
-1.058 -0.3877 1.074 0.4185 -1.218 1.713 -0.4202 -0.3374
00000000: 3dba 8fbe ab3d 142e de21 c1bc c939 91c1
00000010: aa3d 063e 1542 493e f1a4 d242 383c 393d
00000020: 9040 9041 32c0 08c1 c634 ecbc 2c40 f4b9
00000030: 3bbc 34b6 4c3c b236 dfbc da3e b9b6 66b5

stages.s1.b3.block.0.1.running_var f2 [32]
2.188 2.818 6.027 3.291 3.227 3.217 1.511 1.999
3.072 2.16 2.066 1.598 2.414 2.281 3.273 1.835
1.847 2.635 3.287 3.314 1.956 2.504 3.59 1.642
1.508 2.701 3.436 2.277 2.248 2.605 3.154 4.27
00000000: 6040 a341 0746 9542 7442 6f42 0b3e ff3f
00000010: 2542 5240 2240 643e d440 9040 8c42 573f
00000020: 633f 4541 9342 a142 d33f 0241 2e43 913e
00000030: 083e 6741 df42 8e40 7f40 3641 4f42 4544

stages.s1.b3.block.1.0.weight f2 [32, 1, 3, 3]
0.0018635 -0.1046 -0.08636 0.04257 0.04037 0.1506 0.1564 0.1873
0.281 -0.02896 0.1265 0.171 0.05725 0.1592 0.08 0.2352
0.343 0.1202 0.02876 0.1462 0.1409 -0.001551 0.1322 0.3535
-0.1941 -0.1831 -0.1791 -0.1656 -0.0894 -0.3306 -0.2766 -0.1177
-0.317 0.06836 0.1225 -0.05356 -0.02686 -0.0587 -0.0489 -0.1299
-0.1321 -0.174 -0.1251 -0.2496 -0.2479 -0.1849 0.1511 0.1257
-0.0384 0.0355 -0.1404 0.2634 0.3845 0.2413 0.1772 0.2776
0.1525 0.0716 0.0285 -0.0781 0.3206 0.2399 0.0968 0.1774
0.08887 -0.1019 -0.0675 0.0776 -0.3342 -0.1677 -0.1907 -0.04947
0.1489 0.1791 0.1239 0.1151 0.3184 -0.09436 0.0719 0.002695
0.2512 -0.187 0.1547 0.01545 -0.005276 0.1204 -0.073 0.2461
0.4985 0.2744 -0.005077 0.2534 0.1172 -0.03827 -0.01797 -0.1641
0.08813 0.4287 0.07446 0.079 0.07074 -0.4521 -0.2854 0.1466
0.2324 -0.2401 -0.0059 0.1445 -0.1986 0.01247 0.1346 0.06885
-0.2725 -0.2576 -0.0802 -0.2039 0.0362 -0.2401 -0.1338 -0.1489
-0.266 -0.288 -0.1843 -0.04965 0.0762 0.0332 0.06287 -0.2294
0.0754 0.05417 0.1655 -0.09735 0.3167 -0.05264 -0.3389 0.0211
-0.09863 -0.1487 -0.2314 0.001414 -0.1863 -0.04034 -0.1278 -0.07117
-0.006355 0.2495 0.05258 -0.076 0.2184 0.2144 -0.04333 0.24
0.10406 0.2196 0.3284 0.473 -0.01764 0.1283 -0.2302 -0.007572
0.1077 0.05923 -0.0971 -0.0782 -0.2256 0.169 0.3162 0.2024
0.1158 0.2109 0.1423 -0.1812 -0.4033 -0.1227 -0.02112 -0.06256
0.01189 -0.01993 -0.1143 -0.06335 -0.135 0.1785 -0.2102 0.11426
0.05518 0.0925 -0.3486 -0.01881 -0.2463 -0.3105 -0.2686 -0.01431
-0.1774 -0.0514 0.0974 -0.11804 -0.2113 -0.04898 -0.1678 -0.1997
-0.01076 -0.0914 -0.1711 -0.01817 -0.1953 -0.1891 -0.08185 0.1963
-0.1754 -0.0691 0.04474 -0.02457 0.009705 0.3032 -0.0828 -0.0725
-0.2346 -0.05484 -0.09784 -0.0556 0.04303 -0.1195 0.04822 -0.06696
-0.1356 0.10333 -0.3027 0.1178 -0.0418 -0.0887 0.1383 -0.002735
-0.2311 0.2042 0.3264 -0.11285 0.077 0.2498 0.05737 0.1434
0.0921 -0.2983 0.03732 0.3616 0.2441 0.1831 0.0895 -0.1626
-0.1334 -0.05765 0.1726 0.1537 -0.1722 -0.1213 -0.2686 0.007317
00000000: a217 b2ae 87ad 7329 2b29 d230 0131 fe31
00000010: 7f34 6aa7 0c30 7931 542b 1831 1f2d 8733
00000020: 7d35 b12f 5d27 ae30 8230 5a96 3b30 a835
00000030: 36b2 dcb1 bbb1 4db1 b9ad 4ab5 6db4 88af
00000040: 12b5 602c d72f dbaa e0a6 83ab 42aa 28b0
00000050: 3ab0 91b1 01b0 fdb3 efb3 ebb1 d630 0630
00000060: eaa8 8b28 7eb0 3734 2736 b933 ac31 7134
00000070: e130 952c 4c27 00ad 2135 ad33 322e ad31
00000080: b02d 86ae 52ac f72c 59b5 5eb1 1ab2 55aa
00000090: c430 bb31 ee2f 5e2f 1835 0aae 9a2c 8519
000000a0: 0534 fcb1 f330 e923 679d b52f acac e033
000000b0: fa37 6434 339d 0e34 802f e6a8 9aa4 40b1
000000c0: a42d dc36 c42c 0e2d 872c 3cb7 91b4 b130
000000d0: 7033 afb3 0b9e a030 5bb2 6222 4f30 682c
000000e0: 5cb4 1fb4 22ad 86b2 a228 afb3 48b0 c4b0
000000f0: 42b4 9cb4 e6b1 5baa e02c 4028 062c 57b3
00000100: d32c ef2a 4c31 3bae 1135 bdaa 6cb5 6725
00000110: 50ae c2b0 68b3 cb15 f6b1 2aa9 17b0 8eac
00000120: 829e fc33 bb2a ddac fd32 dc32 8ca9 ae33
00000130: a92e 0733 4135 9137 84a4 1b30 5eb3 c19f
00000140: e52e 952b 37ae 01ad 38b3 6831 0f35 7a32
00000150: 692f c032 8e30 ccb1 74b6 daaf 68a5 01ac
00000160: 1622 1aa5 51af 0eac 52b0 b631 bab2 502f
00000170: 102b ec2d 94b5 d1a4 e2b3 f8b4 4cb4 54a3
00000180: adb1 94aa 3c2e 8eaf c3b2 45aa 5fb1 64b2
00000190: 82a1 d9ad 7ab1 a7a4 40b2 0db2 3dad 4832
000001a0: 9db1 6cac ba29 4aa6 f820 da34 4dad a4ac
000001b0: 82b3 05ab 43ae 1eab 8229 a6af 2c2a 49ac
000001c0: 57b0 9d2e d8b4 8a2f 5aa9 adad 6d30 9a99
000001d0: 65b3 8932 3935 39af ee2c fe33 582b 9730
000001e0: e52d c6b4 c728 c935 d033 dc31 ba2d 34b1
000001f0: 45b0 61ab 8631 eb30 83b1 c3af 4cb4 7e1f

stages.s1.b3.block.1.1.weight f2 [32]
0.998 0.8643 1.183 1.065 1.014 1.002 1.082 1.045
0.728 1.138 0.917 1.091 0.9155 0.965 0.9707 0.971
0.9775 1.166 1.251 0.976 0.93 1.01 1.18 0.8276
0.737 1.009 1.125 1.099 0.9595 1.093 1.019 1.222
00000000: fc3b ea3a bb3c 433c 0e3c 023c 543c 2e3c
00000010: d339 8d3c 563b 5d3c 533b b83b c43b c53b
00000020: d23b aa3c 013d cf3b 713b 0a3c b83c 9f3a
00000030: e539 093c 803c 653c ad3b 5f3c 133c e33c

stages.s1.b3.block.1.1.bias f2 [32]
-0.3733 0.01267 0.152 0.1357 0.2627 0.1897 -0.239 0.02405
-0.273 -0.1481 -0.137 -0.219 0.004925 0.0884 -0.05704 -0.01305
-0.1154 -0.02199 0.1028 0.3335 -0.05768 0.1304 0.2668 -0.11707
-0.1127 -0.2278 0.07825 -0.04672 0.07275 0.4146 -0.2047 0.02841
00000000: f9b5 7d22 dd30 5830 3434 1232 a6b3 2826
00000010: 5eb4 bdb0 62b0 02b3 0b1d a82d 4dab aea2
00000020: 63af a1a5 942e 5635 62ab 2c30 4534 7eaf
00000030: 36af 4ab3 022d fba9 a82c a236 8db2 4627

stages.s1.b3.block.1.1.running_mean f2 [32]
0.2181 0.504 0.1302 -0.501 -0.4907 0.4543 0.6675 -0.2515
0.4705 0.1182 0.0414 -0.0873 -0.2825 -0.4695 -0.02351 -0.3357
0.284 0.2206 0.2257 -0.4604 -0.2395 -0.4314 -0.328 0.05615
-0.2412 -0.01964 0.3008 0.3413 -0.5205 0.3154 -0.1284 -0.1
00000000: fb32 0838 2b30 02b8 dab7 4537 5739 06b4
00000010: 8737 912f 4d29 96ad 85b4 83b7 05a6 5fb5
00000020: 8b34 0f33 3933 5eb7 aab3 e7b6 3fb5 302b
00000030: b8b3 07a5 d034 7635 2ab8 0c35 1cb0 66ae

stages.s1.b3.block.1.1.running_var f2 [32]
0.09406 0.1249 0.2605 0.183 0.253 0.2546 0.6626 0.10394
0.3713 0.08154 0.02173 0.1153 0.181 0.2615 0.08093 0.2363
0.1847 0.4214 0.1687 0.04413 0.1178 0.1985 0.1643 0.1141
0.1362 0.204 0.2333 0.2747 0.1758 0.4932 0.07074 0.1231
00000000: 052e fe2f 2b34 db31 0c34 1334 4d39 a72e
00000010: f135 382d 9025 612f cb31 2f34 2e2d 9033
00000020: e931 be36 6631 a629 8a2f 5a32 4231 4d2f
00000030: 5c30 8732 7733 6534 a031 e437 872c e12f

stages.s1.b3.block.2.0.weight f2 [16, 32, 1, 1]
0.4922 -0.4485 0.289 0.288 -0.225 0.1251 0.546 0.2512
0.4275 -0.375 -0.6953 0.1326 0.29 0.08826 -0.491 -0.4766
0.1693 -0.3289 0.3438 0.2896 -0.2964 0.2122 -0.2145 0.4722
0.3643 0.2312 0.4666 -0.2905 -0.333 -0.993 0.06012 0.4797
-0.132 0.4983 -0.0868 0.3398 0.0123 -0.266 -0.09344 0.881
-0.2018 0.3367 -0.09503 0.1608 0.3242 -0.05765 -0.701 0.01709
0.09296 -0.2744 -0.1185 -0.4043 -0.1219 -0.4158 -0.2123 -0.2737
0.1868 0.2734 0.645 0.03445 -0.1927 0.4595 -0.001078 1.129
0.06012 0.4204 -0.2837 -0.00596 0.08234 -0.1111 -0.5576 -0.3716
-0.3555 0.3752 -0.513 -0.02135 -0.0841 0.02992 -0.0823 0.3518
-0.5615 0.03336 -0.2294 -0.3406 0.6978 -0.713 0.559 0.574
-0.1095 -0.4746 -0.1433 -0.111 -0.924 -0.16 0.3357 0.1693
-0.3474 0.455 0.0488 -0.115 0.01174 -0.1709 -0.0739 0.1904
0.3206 0.7373 0.327 -0.0136 -0.3933 -0.05695 -0.5225 -0.753
0.538 0.1816 0.532 0.4097 0.2278 -0.1515 -0.4167 -0.2852
-0.196 -0.2915 0.7993 0.482 -0.6646 0.08936 -0.09863 0.4556
0.00857 -0.11554 0.001596 0.4006 0.05664 0.4377 0.05008 -0.1086
-0.3015 -0.06143 0.004635 0.088 0.4006 -0.4067 -0.1376 0.2153
0.1842 -0.5215 0.2505 -0.4695 -0.405 0.174 0.06204 -0.2382
0.03278 0.676 0.341 0.612 -0.1666 0.1582 0.3757 -1.002
-0.2603 -0.0958 0.838 -0.1733 -0.1263 -0.4285 -0.4004 -0.2405
0.316 -0.4941 0.05325 -0.0847 -0.1881 0.4607 0.3088 -0.6924
-0.3694 -0.466 0.785 0.2008 -0.2261 -0.3123 0.512 -0.1951
-0.2703 -0.352 -0.0623 0.3728 -0.087 0.8926 -0.2058 -0.0498
0.5625 -0.1313 -0.1664 -0.633 0.6445 -0.5312 -0.05057 -0.4612
-0.561 0.05957 -0.1197 -0.4966 -0.07166 -0.5625 0.2426 -0.04288
-0.4055 0.0438 0.3643 -0.008354 0.559 -0.5522 -0.5747 0.1119
0.0323 0.7915 -0.3276 -0.637 -0.02705 0.2041 0.06824 -0.2346
0.2174 -0.1288 -0.588 -0.4697 0.282 -0.2035 -0.02779 0.3723
-0.1349 0.3914 -0.2406 0.00986 0.684 0.4229 -0.1893 0.0858
6.64e-05 -0.526 -0.2776 0.867 0.2798 -0.5146 -0.4788 0.447
0.355 0.1606 0.2216 0.318 0.4736 0.183 0.1442 -0.694
00000000: e037 2db7 a034 9c34 33b3 0130 5e38 0534
00000010: d736 00b6 90b9 3e30 a434 a62d dbb7 a0b7
00000020: 6b31 43b5 8035 a234 beb4 ca32 ddb2 8e37
00000030: d435 6633 7737 a6b4 54b5 f2bb b22b ad37
00000040: 39b0 f937 8ead 7035 4c22 42b4 fbad 0c3b
00000050: 75b2 6335 15ae 2531 3035 61ab 9cb9 6024
00000060: f32d 64b4 96af 78b6 cdaf a7b6 cbb2 61b4
00000070: fa31 6034 2939 6928 2bb2 5a37 6a94 843c
00000080: b22b ba36 8ab4 1a9e 452d 1caf 76b8 f2b5
00000090: b0b5 0136 1bb8 77a5 62ad a927 44ad a135
000000a0: 7eb8 4528 57b3 73b5 9539 b4b9 7938 9838
000000b0: 02af 98b7 96b0 1baf 64bb 1fb1 5f35 6b31
000000c0: 8fb5 4837 3f2a 5caf 0322 78b1 bbac 1832
000000d0: 2135 e639 3b35 f7a2 4bb6 4aab 2eb8 06ba
000000e0: 4e38 d031 4238 8e36 4a33 d9b0 abb6 90b4
000000f0: 46b2 aab4 653a b637 51b9 b82d 50ae 4a37
00000100: 6320 65af 8a16 6936 402b 0137 692a f3ae
00000110: d3b4 ddab bf1c a22d 6936 82b6 67b0 e432
00000120: e531 2cb8 0234 83b7 7bb6 9131 f12b 9fb3
00000130: 3228 6839 7535 e538 55b1 1031 0336 02bc
00000140: 2ab4 22ae b43a 8cb1 0bb0 dbb6 68b6 b2b3
00000150: 0e35 e8b7 d12a 6cad 05b2 5f37 f134 8ab9
00000160: e9b5 75b7 483a 6d32 3cb3 ffb4 1938 3eb2
00000170: 53b4 a2b5 f9ab f735 91ad 243b 96b2 60aa
00000180: 8038 34b0 53b1 10b9 2839 40b8 79aa 61b7
00000190: 7db8 a02b a9af f2b7 96ac 80b8 c333 7da9
000001a0: 7db6 9b29 d435 47a0 7938 6bb8 99b8 292f
000001b0: 2228 553a 3eb5 19b9 eda6 8832 5e2c 82b3
000001c0: f532 1fb0 b4b8 84b7 8334 83b2 1da7 f535
000001d0: 51b0 4336 b3b3 0c21 7939 c436 0fb2 7e2d
000001e0: 5a04 35b8 71b4 f03a 7a34 1eb8 a9b7 2737
000001f0: ae35 2431 1733 1735 9437 db31 9d30 8db9

stages.s1.b3.block.2.1.weight f2 [16]
0.635 0.932 0.9756 0.7417 0.977 1.148 1.091 0.939
0.612 0.649 0.9424 0.8687 0.73 0.8486 0.9575 0.9287
00000000: 1439 753b ce3b ef39 d13b 983c 5d3c 833b
00000010: e538 3139 8a3b f33a d739 ca3a a93b 6e3b

stages.s1.b3.block.2.1.bias f2 [16]
-0.0279 0.2109 0.092 -0.1515 0.2295 0.1438 0.01883 -0.1296
0.1732 0.03284 0.299 -0.0954 0.1288 0.2173 -0.2292 0.02687
00000000: 24a7 c032 e32d d9b0 5833 9a30 d224 26b0
00000010: 8b31 3428 c934 1bae 1f30 f432 56b3 e126

stages.s1.b3.block.2.1.running_mean f2 [16]
0.1691 0.7646 -0.9565 0.5327 0.199 0.1976 -1.333 0.336
-0.551 -1.034 -0.902 1.977 -2.674 -0.7456 0.7163 1.273
00000000: 6931 1e3a a7bb 4338 5e32 5332 55bd 6035
00000010: 68b8 23bc 37bb e83f 59c1 f7b9 bb39 183d

stages.s1.b3.block.2.1.running_var f2 [16]
3.1 3.025 4.152 5.05 1.337 3.39 3.04 1.675
4.11 4.46 1.88 3.562 4.1 3.037 4.613 3.533
00000000: 3342 0d42 2744 0d45 593d c842 1442 b33e
00000010: 1c44 7644 853f 2043 1a44 1342 9d44 1143
