predictions/qzba04pf/model_state_dict.pt (torch, 82949 bytes, 105 tensors)

in_c.0.0.weight f2 [4, 1, 3, 3]
000000 3a 31 46 b4 5d b3 56 37 71 36 7d 3a 23 b6 5a 31
       0.1633 -0.267 -0.2301 0.4585 0.4026 0.811 -0.3835 0.1672
000010 9c 36 73 b4 dd b1 d0 30 e4 b6 52 38 52 ac 3b b5
       0.413 -0.278 -0.1832 0.1504 -0.4307 0.54 -0.0675 -0.327
000020 19 32 69 2f 5b 37 c5 39 dd b0 87 a4 59 33 51 b4
       0.1906 0.1158 0.4597 0.721 -0.152 -0.01768 0.2296 -0.2698
000030 27 b0 36 2b 67 b1 e7 2c de 21 d5 b6 2e 37 41 ab
       -0.1298 0.05634 -0.1688 0.0766 0.01146 -0.427 0.4487 -0.05667
000040 b1 b4 a1 27 73 35 8a b5
       -0.2932 0.0298 0.3406 -0.3462

in_c.0.1.weight f2 [4]
000000 20 3c 9b 3b 79 3c 02 3c
       1.031 0.9507 1.118 1.002

in_c.0.1.bias f2 [4]
000000 39 2d 63 28 bc ad b3 2f
       0.0816 0.03427 -0.0896 0.1203

in_c.0.1.running_mean f2 [4]
000000 9e c2 7e 38 8a be 91 36
       -3.309 0.5615 -1.635 0.4104

in_c.0.1.running_var f2 [4]
000000 80 53 64 41 1f 4c 8f 40
       60.0 2.695 16.48 2.28

in_c.1.0.weight f2 [16, 4, 3, 3]
000000 67 b3 8a a5 a9 b0 70 35 3f 30 1d ac 25 31 d9 a9
       -0.2313 -0.02164 -0.1456 0.3398 0.1327 -0.0643 0.1608 -0.0457
000010 4d b3 bc 1a b8 2b cc 23 98 ae a5 31 ae ac 47 a9
       -0.2281 0.003288 0.0603 0.01523 -0.103 0.1764 -0.0731 -0.04123
000020 e0 31 a8 b6 23 b3 28 b3 b6 2d 90 ad 34 ad 64 b0
       0.1836 -0.416 -0.223 -0.2236 0.08923 -0.0869 -0.0813 -0.1372
000030 96 a3 f1 a9 fe a8 70 b1 ac 2a fa 2b 7c b0 5f 1a
       -0.01482 -0.04642 -0.039 -0.1699 0.05212 0.06232 -0.1401 0.00311
000040 19 34 6e b4 d1 b7 ff 26 15 35 d1 33 f2 2c 9d 34
       0.256 -0.2769 -0.4885 0.02733 0.3176 0.2443 0.0773 0.2883
000050 15 37 86 b3 1a 9e 8b 2c d5 b0 ab 30 63 b3 84 b1
       0.4426 -0.2351 -0.00596 0.071 -0.151 0.1459 -0.2308 -0.1724
000060 99 aa b1 30 02 28 65 27 e9 af 2e b2 87 35 a7 2f
       -0.05154 0.1466 0.0313 0.02888 -0.1236 -0.1931 0.3455 0.11957
000070 8d b1 d4 30 f3 33 c9 29 e3 a9 23 30 a9 31 62 25
       -0.1735 0.1509 0.2484 0.0452 -0.046 0.1293 0.1769 0.02103
000080 a2 1d a3 ad 17 ac 20 28 76 2d 7d 25 55 2c 9a 29
       0.0055 -0.0881 -0.0639 0.03223 0.0853 0.02144 0.0677 0.04376
000090 42 ae 03 ae b4 23 40 1c a2 b2 53 a1 0a 2c 94 b4
       -0.0978 -0.09393 0.015045 0.00415 -0.2073 -0.0104 0.0631 -0.2861
0000a0 4a 32 16 31 5a b2 98 b4 86 2a 78 2c da a8 3a 2c
       0.1965 0.1589 -0.1985 -0.287 0.05096 0.0698 -0.0379 0.06604
0000b0 cf a4 00 2c 1b 31 19 2f c3 2a 90 24 68 b4 15 2c
       -0.01878 0.0625 0.1595 0.1109 0.05283 0.01782 -0.2754 0.0638
0000c0 7b ac 29 30 2e b1 80 b1 6a 2a 1f 30 8e a0 0b 2e
       -0.07 0.13 -0.1619 -0.1719 0.0501 0.1288 -0.008896 0.0944
0000d0 45 36 95 30 b2 2d 7a 32 43 b4 c3 31 89 2a 1b a4
       0.3918 0.1432 0.089 0.2024 -0.2664 0.18 0.05106 -0.01604
0000e0 18 38 fe 36 41 b0 b1 2e 3a 2f 1f b4 5e 9e 3f b1
       0.5117 0.437 -0.1329 0.10455 0.1129 -0.2576 -0.006218 -0.164
0000f0 10 2d 41 32 bf b4 53 b1 03 2f 8f ac f6 b6 66 b4
       0.0791 0.1954 -0.2966 -0.1664 0.10956 -0.0712 -0.435 -0.275
000100 f2 ad b8 a2 db 31 f0 32 93 15 ad 31 ee 26 e9 b1
       -0.0929 -0.01312 0.183 0.2168 0.001361 0.1774 0.02707 -0.1847
000110 63 ac 79 30 df b4 b0 21 b1 2b 68 a8 a2 28 1a 32
       -0.06854 0.1398 -0.3044 0.01111 0.0601 -0.03442 0.0362 0.1907
000120 2e 2e 2b b0 2a 33 7c ae 77 a0 98 ac 7a b3 e1 ae
       0.09656 -0.1302 0.2239 -0.1013 -0.00872 -0.0718 -0.2336 -0.1075
000130 88 ab 8b af 3d 36 b1 33 31 ae 1f 36 34 32 c8 2f
       -0.05884 -0.11786 0.39 0.2404 -0.09674 0.3826 0.1938 0.1216
000140 b1 36 0f aa 42 a4 8b ad 8d b0 d0 19 64 ae 18 a7
       0.4182 -0.04733 -0.01663 -0.0866 -0.1422 0.002838 -0.09985 -0.02771
000150 5f b3 20 a6 bc 2b ce 2e f7 b5 63 b1 91 2e 04 b8
       -0.2303 -0.02393 0.06042 0.1063 -0.3728 -0.1683 0.1026 -0.502
000160 c1 b0 34 33 c1 b4 0a b1 81 aa 1c b0 0f a8 f3 2c
       -0.1486 0.2251 -0.297 -0.1575 -0.0508 -0.1284 -0.0317 0.07733
000170 e7 28 b2 30 d1 29 0e b4 f7 b0 b3 35 29 31 b1 33
       0.0383 0.1467 0.04544 -0.2534 -0.1552 0.3562 0.1613 0.2404
000180 22 2a 58 b3 65 34 a2 aa a0 2c 76 ae ee af b5 28
       0.0479 -0.2295 0.2747 -0.05182 0.07227 -0.10095 -0.1239 0.03677
000190 75 b0 c5 a7 1d 2d 49 ac 95 a7 10 2e 5b 26 d7 b1
       -0.1393 -0.03035 0.0799 -0.06696 -0.02962 0.0947 0.02483 -0.1825
0001a0 5d 30 29 26 66 ac e1 31 85 ad b6 ac 0c a8 a9 b1
       0.1364 0.02406 -0.0687 0.1837 -0.08624 -0.0736 -0.03162 -0.1769
0001b0 e3 27 ee b1 89 b0 de 30 4b ac 92 b3 31 ad b2 b0
       0.0308 -0.1853 -0.1417 0.1521 -0.0671 -0.2366 -0.0811 -0.1467
0001c0 7b b1 06 2d 2c 2b f1 b1 50 aa 73 b2 c9 28 48 b5
       -0.1713 0.0785 0.05603 -0.1857 -0.04932 -0.2015 0.03738 -0.33
0001d0 28 a8 2e ab 0f b1 9a b6 12 b6 8c 29 b4 b5 a4 ae
       -0.03247 -0.0561 -0.1581 -0.4126 -0.3794 0.04333 -0.3564 -0.10376
0001e0 65 35 b8 34 b3 af 9b 32 5b 2a 61 36 85 2d 3c 2b
       0.3372 0.295 -0.1203 0.2064 0.04965 0.3987 0.08624 0.05652
0001f0 c9 2c 5f 32 26 af ec 2d 68 9c 2f 36 70 30 87 b4
       0.07477 0.1991 -0.1117 0.0925 -0.004303 0.3865 0.1387 -0.283

in_c.1.1.weight f2 [16]
000000 e7 3b b9 3c a6 3b fe 3d 09 3d 60 3a ce 3c b8 3b
       0.988 1.181 0.956 1.498 1.259 0.797 1.201 0.965
000010 6e 3c 2f 3c 0b 3d 7f 3c 6f 3a 51 3c b5 39 40 3a
       1.107 1.046 1.261 1.124 0.804 1.079 0.7134 0.7812

in_c.1.1.bias f2 [16]
000000 9f 32 0b 36 c8 ac 31 36 10 33 f1 b2 d4 31 52 ab
       0.2069 0.3777 -0.0747 0.387 0.2207 -0.2169 0.1821 -0.0572
000010 47 34 66 17 f8 2c fe 2d 31 ab 0d 22 23 28 f3 b4
       0.2673 0.001806 0.07764 0.0936 -0.05618 0.01182 0.03232 -0.3093

in_c.1.1.running_mean f2 [16]
000000 79 b9 79 3a 35 31 57 30 2d b6 88 a1 e6 b8 2b b5
       -0.684 0.809 0.1627 0.1356 -0.386 -0.0108 -0.6123 -0.323
000010 48 28 91 bc eb 3e 2c be 53 ac a9 bb 16 3d 00 34
       0.03345 -1.142 1.7295 -1.543 -0.06757 -0.9575 1.271 0.25

in_c.1.1.running_var f2 [16]
000000 52 34 51 3d c2 35 26 39 70 3c f9 33 54 3c 84 3a
       0.27 1.329 0.3599 0.6436 1.109 0.2491 1.082 0.8145
000010 aa 39 e0 37 02 3e 2c 40 01 3c e9 3b 95 3b 09 36
       0.708 0.4922 1.502 2.086 1.001 0.989 0.9478 0.3772

stages.s1.b1.block.0.0.weight f2 [32, 16, 1, 1]
000000 18 33 73 34 c2 33 b4 b4 63 24 9c b6 79 a9 f8 37
       0.2217 0.278 0.2424 -0.294 0.01714 -0.413 -0.04276 0.498
000010 ac 35 08 b4 26 38 ba 31 9e af cc b4 94 ad 11 1d
       0.3545 -0.252 0.5186 0.179 -0.119 -0.2998 -0.08716 0.004948
000020 58 b5 34 bc f1 2c bb b4 5f 2f cb 33 20 25 14 b4
       -0.334 -1.051 0.0772 -0.2957 0.1152 0.2435 0.02002 -0.255
000030 63 b4 b1 35 9a b8 89 35 4c a5 31 b2 75 91 73 b5
       -0.2742 0.3557 -0.575 0.346 -0.02069 -0.1935 -0.000666 -0.3406
000040 28 30 5b 1b 22 32 fd b5 f0 b7 25 33 6a ae b9 af
       0.1299 0.003592 0.1917 -0.3743 -0.496 0.2233 -0.1002 -0.12067
000050 20 b6 5e 30 31 b8 64 31 bf b5 d2 aa da b5 19 b4
       -0.3828 0.1365 -0.524 0.1685 -0.3591 -0.05328 -0.3657 -0.256
000060 85 34 50 b4 de ab c6 b4 a4 32 f6 b9 f3 2a a0 34
       0.2825 -0.2695 -0.06146 -0.2983 0.2075 -0.745 0.0543 0.289
000070 dd a4 35 30 4b b0 20 ac 53 b2 b2 34 b3 b0 37 25
       -0.019 0.1315 -0.1342 -0.06445 -0.1976 0.2935 -0.1469 0.02037
000080 a9 b7 a2 37 e3 b4 5a 30 15 2f 8e 31 a0 ab 1d 35
       -0.4788 0.477 -0.3054 0.136 0.11066 0.1736 -0.05957 0.3196
000090 a9 a2 44 ad 84 34 85 2e 63 34 20 b6 20 b0 22 b4
       -0.01301 -0.0823 0.2822 0.10187 0.2742 -0.3828 -0.1289 -0.2583
0000a0 ee b4 df b1 b1 b3 19 30 45 b6 bb 35 67 ac c3 36
       -0.308 -0.1835 -0.2404 0.128 -0.3918 0.3582 -0.0688 0.4226
0000b0 9a 2e b4 ae 82 b4 34 b4 ef 30 bc 34 fd 31 0a 38
       0.10315 -0.10474 -0.2817 -0.2627 0.1542 0.296 0.1871 0.505
0000c0 37 29 5b 31 11 34 20 34 2a 34 a0 b0 0b bb 3f 36
       0.04074 0.1674 0.2542 0.2578 0.2603 -0.1445 -0.8804 0.3904
0000d0 4d 2b 6b b3 ad a8 82 b1 c6 b4 4e a9 3d b1 7b b5
       0.05704 -0.2318 -0.03653 -0.1721 -0.2983 -0.04144 -0.1637 -0.3425
0000e0 1f 34 0b 3a 1f af f2 34 b8 9c 52 34 6e b8 2e b1
       0.2576 0.7554 -0.11127 0.309 -0.00461 0.27 -0.5537 -0.1619
0000f0 a6 32 2e 30 c8 38 a2 2d d3 aa db 2d c8 b2 96 b4
       0.2078 0.1306 0.5977 0.088 -0.0533 0.0915 -0.2119 -0.2866
000100 71 24 e6 a8 e9 36 08 b4 9c 2e 78 b0 6d 34 79 a0
       0.01735 -0.03827 0.432 -0.252 0.1033 -0.1396 0.2766 -0.008736
000110 16 b6 01 a8 cc a9 e6 38 ee 26 cc aa f3 af 51 21
       -0.3804 -0.03128 -0.0453 0.6123 0.02707 -0.0531 -0.1242 0.01038
000120 82 25 60 b2 50 b4 c4 31 45 b2 b4 b4 ec b5 d2 35
       0.02151 -0.1992 -0.2695 0.1802 -0.1959 -0.294 -0.37 0.3638
000130 21 3a 78 30 7f b5 98 b5 61 2f 23 30 a4 b2 8c 29
       0.766 0.1396 -0.3435 -0.3496 0.1153 0.1293 -0.2075 0.04333
000140 25 af e5 34 c1 ad 6c b9 2e b8 0d 30 50 a0 4e 39
       -0.11163 0.306 -0.0899 -0.6777 -0.5225 0.1266 -0.00842 0.663
000150 20 34 47 a9 aa 23 a8 b4 72 b8 b3 b0 a3 2e 16 b3
       0.2578 -0.04123 0.01497 -0.291 -0.5557 -0.1469 0.1037 -0.2214
000160 c2 ae 6f 2b 3b a9 ab 36 06 ad 9e 2a 7d b5 90 37
       -0.1056 0.05807 -0.04086 0.4167 -0.0785 0.0517 -0.343 0.4727
000170 93 38 48 2c ee 32 05 b5 af ab 70 b8 15 34 93 30
       0.572 0.0669 0.2166 -0.3137 -0.06003 -0.5547 0.2551 0.143
000180 3a 2b 97 b8 d2 9c c9 b8 63 33 bf 2c cf b7 75 32
       0.05646 -0.5737 -0.004707 -0.598 0.2308 0.07416 -0.488 0.2018
000190 2d b2 83 27 e3 b3 b3 1d 6b 2f 33 b7 9a 2c 1a b6
       -0.193 0.02934 -0.2465 0.005566 0.1159 -0.45 0.0719 -0.3813
0001a0 6e b5 24 af 03 ae 3f b4 b5 b4 9e 33 f9 a6 61 b8
       -0.3394 -0.1116 -0.09393 -0.2654 -0.2942 0.238 -0.02724 -0.5474
0001b0 24 b5 23 b6 92 2b fe 28 d2 32 ed b5 a7 31 cc b5
       -0.3213 -0.3835 0.05914 0.039 0.2131 -0.3704 0.1766 -0.3623
0001c0 bc 38 11 34 d9 38 f6 2c da b5 41 35 65 2a 08 30
       0.592 0.2542 0.606 0.0775 -0.3657 0.3284 0.04996 0.126
0001d0 53 b8 ea b1 89 b6 9a b3 1d b6 2e a8 37 30 3d b5
       -0.5405 -0.1848 -0.4084 -0.2375 -0.382 -0.03265 0.1317 -0.3274
0001e0 ee 2c 9e 31 5e 30 90 39 47 34 eb b3 44 b8 ff 2e
       0.077 0.1755 0.1365 0.6953 0.2673 -0.2474 -0.533 0.1093
0001f0 4a b4 a0 30 60 b2 8b a4 5c 35 8d 1f a4 a8 9f b4
       -0.268 0.1445 -0.1992 -0.01775 0.335 0.007374 -0.03625 -0.2888

stages.s1.b1.block.0.1.weight f2 [32]
000000 00 3c 41 3c 41 3d 90 3d da 3c 8a 3b d9 3c 64 3c
       1.0 1.063 1.313 1.391 1.213 0.9424 1.212 1.098
000010 72 3d e6 3a 01 3c f0 3d 1b 3c 05 3d 5e 3c 22 3e
       1.361 0.8623 1.001 1.484 1.026 1.255 1.092 1.533
000020 17 3c 1c 3c 36 3c 88 3b 21 3c 19 3d 49 3d b7 3a
       1.022 1.027 1.053 0.9414 1.032 1.274 1.321 0.8394
000030 da 39 57 3d aa 3c 02 3c 46 3d 8f 3d 74 39 62 3c
       0.7314 1.335 1.166 1.002 1.318 1.39 0.6816 1.096

stages.s1.b1.block.0.1.bias f2 [32]
000000 6f 2c c6 32 a5 2f 33 ad 46 28 a7 33 f6 aa e6 ab
       0.0693 0.2117 0.11945 -0.08124 0.0334 0.2391 -0.05438 -0.0617
000010 cc af 54 34 43 ac f8 27 ff 2d c5 2e b2 a9 34 a6
       -0.1218 0.2705 -0.0666 0.03113 0.0937 0.1058 -0.0445 -0.02423
000020 26 30 23 b0 48 31 28 b2 b0 b1 2a ae f2 a6 3a 34
       0.1296 -0.1293 0.165 -0.1924 -0.1777 -0.0963 -0.02713 0.2642
000030 87 34 81 a4 e4 ab 6e a5 07 1b 8b a0 b7 34 82 ad
       0.283 -0.0176 -0.06165 -0.02121 0.003431 -0.00887 0.2947 -0.08606

stages.s1.b1.block.0.1.running_mean f2 [32]
000000 a3 37 51 bd 95 bc f6 b3 b6 33 1c b3 00 b4 b1 3b
       0.4773 -1.329 -1.1455 -0.2488 0.241 -0.2222 -0.25 0.9614
000010 13 30 eb b0 c2 b9 41 36 71 bd f9 bc 6a b2 5c 36
       0.1273 -0.1537 -0.7197 0.3909 -1.36 -1.243 -0.2004 0.3975
000020 de ae 68 b3 cc bd 63 b8 fc 2b a5 38 44 31 50 3c
       -0.1073 -0.2314 -1.449 -0.5483 0.06238 0.5806 0.1646 1.078
000030 b0 35 20 3b 63 b4 3f b4 4b 31 dc bb ed b5 59 ac
       0.3555 0.8906 -0.2742 -0.2654 0.1654 -0.9824 -0.3704 -0.06793

stages.s1.b1.block.0.1.running_var f2 [32]
000000 65 3b e1 44 ac 3d 29 39 f0 3b 18 35 83 3c 83 41
       0.9243 4.88 1.418 0.645 0.992 0.3184 1.128 2.756
000010 4a 3d 64 3b 76 3c ad 40 41 3e f2 36 75 35 44 39
       1.322 0.924 1.115 2.338 1.563 0.434 0.341 0.658
000020 84 3b 92 37 62 35 68 38 62 38 55 39 67 3c 4b 39
       0.9395 0.4731 0.3364 0.551 0.548 0.6665 1.101 0.6616
000030 41 3b 00 40 b9 3e d9 3a f3 3b ea 34 e3 37 34 34
       0.9067 2.0 1.681 0.856 0.9937 0.3071 0.493 0.2627

stages.s1.b1.block.1.0.weight f2 [32, 1, 3, 3]
000000 97 b0 5f b0 61 ae 00 ab e5 2c c7 9b c7 30 17 36
       -0.1434 -0.1366 -0.0997 -0.0547 0.0765 -0.003798 0.1493 0.3806
000010 14 37 74 b1 09 a6 60 30 7c b5 22 b0 0e 30 09 b4
       0.4424 -0.1704 -0.02357 0.1367 -0.3428 -0.1292 0.1267 -0.2522
000020 fd 28 63 34 2a ae b9 b1 b2 2b d7 b5 55 26 8d 32
       0.03897 0.2742 -0.0963 -0.1788 0.06012 -0.365 0.02473 0.2047
000030 b7 b5 53 2d 56 34 a4 2c 22 a6 d9 2c ec 2b c9 aa
       -0.3572 0.0832 0.271 0.0725 -0.02396 0.07574 0.0619 -0.053
000040 d3 ad 0b b4 ce b1 d1 2c 8d 2e 62 af ff aa 25 2a
       -0.091 -0.2527 -0.1814 0.07526 0.10236 -0.11536 -0.05466 0.048
000050 50 b3 0b ac 63 aa 9f b1 c7 b2 1f b2 7f b1 eb a8
       -0.2285 -0.0632 -0.0499 -0.1757 -0.2118 -0.1913 -0.1718 -0.03842
000060 8c b2 17 2c 35 2c 30 b0 08 30 32 2d df 25 61 ad
       -0.2046 0.0639 0.06573 -0.1309 0.126 0.0812 0.02293 -0.08405
000070 8d 28 16 af 29 ab 5b 28 ab aa c9 b0 45 af ee b0
       0.03555 -0.1107 -0.05594 0.03403 -0.0521 -0.1495 -0.1136 -0.154
000080 29 32 39 38 66 af 87 29 42 2b da b0 7b b0 c6 b0
       0.1925 0.528 -0.1156 0.04318 0.0567 -0.1516 -0.14 -0.1492
000090 91 2e be a2 62 ae 41 2a 35 b1 75 b2 ee 0a 7d ac
       0.1026 -0.01317 -0.09973 0.04886 -0.1627 -0.2018 0.0002115 -0.0701
0000a0 b5 af 47 b5 5a 30 ac 2e a2 b5 5d 90 24 30 ec b5
       -0.1204 -0.3298 0.136 0.10425 -0.352 -0.0005326 0.1294 -0.37
0000b0 c2 ab eb 2e ce 28 a9 30 6f 30 14 b4 f5 b1 49 b3
       -0.0606 0.1081 0.03754 0.1456 0.1385 -0.255 -0.1862 -0.2277
0000c0 f9 9a 17 32 7f 35 cf ae 73 27 56 31 da b4 33 aa
       -0.003405 0.1903 0.3435 -0.1064 0.0291 0.1667 -0.3032 -0.04843
0000d0 0e 31 ce af de 32 e0 35 a5 9c 05 a5 72 33 37 34
       0.158 -0.12195 0.2146 0.3672 -0.004536 -0.0196 0.2327 0.2634
0000e0 73 33 3c 2f 22 ac f0 2e 5f af de b5 7f 2d 6b b1
       0.2328 0.11304 -0.0646 0.1084 -0.1152 -0.3667 0.0859 -0.1693
0000f0 af b0 43 9e a6 b1 b8 b4 b0 ad 9e 28 9f 2c 15 ac
       -0.1464 -0.006115 -0.1765 -0.295 -0.08887 0.03607 0.0722 -0.0638
000100 1a b2 86 31 96 ae 38 b1 1b 30 32 b0 5e 31 a8 28
       -0.1907 0.1726 -0.1029 -0.1631 0.1283 -0.1311 0.1677 0.03638
000110 69 b1 88 1f 5a 34 27 ae 6e a4 a7 33 aa b3 c2 a7
       -0.1691 0.007355 0.272 -0.0961 -0.0173 0.2391 -0.2395 -0.0303
000120 98 31 ee ae 25 a9 34 a9 65 af 56 b0 18 30 55 b1
       0.1748 -0.1083 -0.0402 -0.04065 -0.11554 -0.1355 0.1279 -0.1666
000130 bf b0 14 2e 7c b0 0e a7 4c 28 0a b1 52 b2 0e a9
       -0.1483 0.095 -0.1401 -0.02756 0.03357 -0.1575 -0.1975 -0.0395
000140 c0 b1 fe b1 52 2e dd a9 d2 2e 22 b7 1b b0 ef 33
       -0.1797 -0.1873 0.09875 -0.0458 0.10657 -0.4458 -0.1283 0.2479
000150 8f b4 7d b1 43 2e 3c ad 93 2d 6f a7 12 b1 ff 30
       -0.285 -0.1715 0.09784 -0.0818 0.0871 -0.02904 -0.1584 0.1561
000160 d0 22 94 aa 53 34 da 26 86 b0 df 2d f4 ab 68 34
       0.013306 -0.0514 0.2703 0.02676 -0.1414 0.09174 -0.06213 0.2754
000170 af b5 94 33 18 30 39 a7 86 b0 ac b0 2c b6 7e ae
       -0.3552 0.2368 0.1279 -0.02821 -0.1414 -0.146 -0.3857 -0.10144
000180 31 b0 fa a7 01 ac 7e 24 45 9f 52 33 dd b3 21 af
       -0.131 -0.03116 -0.06256 0.01755 -0.0071 0.2288 -0.2457 -0.1114
000190 b0 27 0a b4 bf b1 b7 ab 86 af ed 21 78 2f 6e b6
       0.03003 -0.2524 -0.1796 -0.06027 -0.11755 0.01157 0.1167 -0.4019
0001a0 9b a7 c5 30 3b a6 c6 ab c9 aa ca ad ae 2f 00 38
       -0.02971 0.149 -0.02434 -0.06073 -0.053 -0.09045 0.12 0.5
0001b0 cb ad 6d b1 81 b4 17 27 af 30 ba 24 7a 33 5a 31
       -0.0905 -0.1696 -0.2815 0.0277 0.1464 0.01846 0.2336 0.1672
0001c0 b9 34 40 38 f0 24 a7 ad 61 31 e9 a3 e0 b1 d4 30
       0.2952 0.5312 0.01929 -0.0883 0.1681 -0.01545 -0.1836 0.1509
0001d0 fb b1 af ae f8 34 d6 35 a1 ab d0 b0 55 a5 8c 26
       -0.1869 -0.10443 0.3105 0.3647 -0.0596 -0.1504 -0.02083 0.02557
0001e0 61 af 7e 32 da ab c0 34 a2 35 61 2f 4d 35 c6 23
       -0.1153 0.2029 -0.06134 0.2969 0.352 0.1153 0.3313 0.01518
0001f0 35 b0 c7 2e 54 2c b6 a8 16 37 7e af 73 b0 90 28
       -0.1315 0.1059 0.0676 -0.0368 0.4429 -0.11707 -0.139 0.03564

stages.s1.b1.block.1.1.weight f2 [32]
000000 61 3c 5d 3c 75 3c 74 3a 36 3b 81 3b 38 3b e8 3d
       1.095 1.091 1.114 0.8066 0.9014 0.938 0.9023 1.477
000010 39 3c 9a 3c 7d 3c 7e 3b ca 3a 5d 3c 6f 3c 23 3c
       1.056 1.15 1.122 0.9365 0.8486 1.091 1.108 1.034
000020 db 3b af 3a 1a 3b a8 3b c8 3b aa 3b 7e 3b 8d 3b
       0.982 0.8354 0.8877 0.957 0.9727 0.958 0.9365 0.944
000030 75 3b 85 3d 21 3c 8f 3b 8c 3a bd 3a c7 3b 2e 3c
       0.932 1.38 1.032 0.945 0.8184 0.8423 0.972 1.045

stages.s1.b1.block.1.1.bias f2 [32]
000000 94 2d 86 36 70 31 d0 af 9e ad 5b 31 82 2e 3c 35
       0.08716 0.4077 0.1699 -0.1221 -0.08777 0.1674 0.1017 0.3271
000010 c7 2e d0 1f 85 33 ea 34 d9 a8 39 aa 32 ac c6 36
       0.1059 0.00763 0.235 0.3071 -0.03787 -0.0486 -0.06555 0.4233
000020 e7 2e 1a ad 13 ad b0 b0 5f 2e c7 29 ab a1 28 2d
       0.10785 -0.0797 -0.0793 -0.1465 0.09955 0.04514 -0.01107 0.08057
000030 9f ae f2 32 15 a9 f9 2f 6e 2c 96 29 80 af ac a4
       -0.10345 0.217 -0.0397 0.1246 0.0692 0.04364 -0.1172 -0.01825

stages.s1.b1.block.1.1.running_mean f2 [32]
000000 ad 33 b0 b1 f4 b1 c3 b0 96 b5 36 b2 b5 b3 8f 2a
       0.2399 -0.1777 -0.186 -0.1488 -0.349 -0.1941 -0.2408 0.05124
000010 27 b4 50 b5 e1 2c 83 33 37 35 0a b9 64 a8 41 a2
       -0.2595 -0.332 0.07623 0.2347 0.326 -0.63 -0.0343 -0.012215
000020 cb b2 d8 b4 68 b4 63 2c 97 16 ae b4 c6 b6 77 2a
       -0.2123 -0.3027 -0.2754 0.06854 0.001609 -0.2925 -0.4233 0.0505
000030 f6 2f 7f 2f 0f 33 7d 36 23 ab 68 b7 e6 b3 aa 33
       0.1244 0.1171 0.2206 0.4055 -0.05576 -0.463 -0.2468 0.2395

stages.s1.b1.block.1.1.running_var f2 [32]
000000 89 35 3d 2a 34 2d a9 29 4f 36 4f 2b 85 2d 4f 2e
       0.346 0.04874 0.0813 0.04422 0.3943 0.0571 0.08624 0.0986
000010 b8 2d 8e 30 c1 2e 1f 33 1a 2d f4 38 e7 2c 7a 35
       0.08936 0.1423 0.1055 0.2225 0.0797 0.619 0.0766 0.3423
000020 84 2e 59 31 c6 2f 3f 2b 01 27 a3 34 32 37 06 2e
       0.1018 0.1671 0.12146 0.0566 0.02736 0.2898 0.4497 0.0941
000030 33 2e ef 30 f0 2d d4 31 d1 2c 98 35 e8 29 b1 2f
       0.09686 0.1542 0.0928 0.1821 0.07526 0.3496 0.04614 0.1202

stages.s1.b1.block.2.0.weight f2 [16, 32, 1, 1]
000000 f9 bb ab 27 0f 30 1c af 3b 36 82 b8 b4 1e 6a b5
       -0.9966 0.02995 0.1268 -0.1111 0.3894 -0.5635 0.006546 -0.3384
000010 85 b4 e8 b2 0b 35 e6 b2 08 a2 6e b7 64 ba 47 b6
       -0.2825 -0.2158 0.3152 -0.2156 -0.01178 -0.4644 -0.799 -0.3923
000020 a1 af 49 b4 cf b0 a2 b4 49 35 b8 2e c6 b5 3e 2e
       -0.1192 -0.2678 -0.1503 -0.2896 0.3303 0.105 -0.3608 0.09753
000030 a3 38 a7 28 5d b5 b9 2e b6 38 c3 24 a8 32 74 a4
       0.5796 0.03635 -0.3352 0.10504 0.589 0.0186 0.208 -0.0174
000040 08 2a c1 35 2c 35 91 34 92 34 0a 1c 82 ad 2d ba
       0.04712 0.3596 0.3232 0.2854 0.2856 0.003944 -0.08606 -0.772
000050 b4 32 55 b9 7b b4 90 b6 20 b7 ce b7 35 26 13 39
       0.2095 -0.6665 -0.28 -0.4102 -0.4453 -0.4878 0.02425 0.6343
000060 2a 38 b7 b4 7c 38 d9 b1 fb 28 37 ac 62 ae 58 39
       0.5205 -0.2947 0.5605 -0.1827 0.0389 -0.06586 -0.09973 0.668
000070 a3 b4 3a b8 dd b7 00 38 c8 38 19 31 5b b7 ec 2e
       -0.2898 -0.5283 -0.4915 0.5 0.5977 0.1593 -0.4597 0.10815
000080 ba 2d 57 b7 15 b1 56 b2 e4 3a 4c ab 8e 33 91 b7
       0.0895 -0.4587 -0.1588 -0.198 0.8613 -0.057 0.2361 -0.473
000090 ac 33 59 2c 5b b1 fc b0 ff a9 c9 b8 e7 b5 55 b1
       0.2397 0.06793 -0.1674 -0.1558 -0.04684 -0.598 -0.369 -0.1666
0000a0 71 2c f6 b8 90 ac 62 39 c8 b3 49 b9 ef a1 d5 a5
       0.0694 -0.62 -0.0713 0.673 -0.2432 -0.6606 -0.01159 -0.02278
0000b0 ad b5 08 33 0f 3b 80 35 75 34 1b 3c b2 b9 d2 36
       -0.3547 0.2197 0.8823 0.3438 0.2786 1.026 -0.712 0.4263
0000c0 9a b6 d2 2f b6 ae c6 a9 7b 26 eb 35 4d b5 56 b8
       -0.4126 0.1222 -0.10486 -0.0451 0.02531 0.3699 -0.3313 -0.542
0000d0 69 33 f6 36 36 38 ff 32 61 b7 8b aa 45 38 24 a9
       0.2316 0.435 0.5264 0.2186 -0.4612 -0.05112 0.5337 -0.04016
0000e0 5c b1 04 b9 b5 2f b9 b5 00 35 9a 35 b7 3a 75 32
       -0.1675 -0.627 0.1204 -0.3577 0.3125 0.35 0.8394 0.2018
0000f0 5a 26 81 b6 59 bc f5 a8 ea b8 38 35 4d 3a cd 2f
       0.02481 -0.4065 -1.087 -0.03873 -0.6143 0.3262 0.7876 0.1219
000100 53 b8 d5 b1 10 35 aa ac f0 35 d0 a5 0c 38 84 30
       -0.5405 -0.1823 0.3164 -0.0729 0.371 -0.0227 0.506 0.1411
000110 94 b6 ad 3c 53 31 37 2c 52 36 01 a8 bf b5 23 35
       -0.4111 1.169 0.1664 0.06586 0.395 -0.03128 -0.3591 0.321
000120 ec 38 f5 24 60 34 4f 38 16 38 70 ae 3d b7 6a 34
       0.615 0.01936 0.2734 0.5386 0.5107 -0.1006 -0.4524 0.276
000130 c9 21 36 b6 0b 26 eb b0 b6 39 d6 33 a8 31 ec 2c
       0.0113 -0.3882 0.0236 -0.1537 0.714 0.2449 0.1768 0.0769
000140 6a 33 71 35 ec b8 4f aa 71 2e 40 32 ea b5 49 29
       0.2317 0.34 -0.615 -0.0493 0.10065 0.1953 -0.3696 0.0413
000150 25 3a 51 b7 35 98 7a 96 76 b5 37 38 fc 35 b1 bc
       0.768 -0.4573 -0.002054 -0.001581 -0.3413 0.527 0.374 -1.173
000160 02 32 92 33 67 31 8b 32 4d b0 e9 9f a9 ae cd ac
       0.1877 0.2366 0.1688 0.2045 -0.1344 -0.007725 -0.10406 -0.075
000170 8b b7 23 34 d5 b6 a6 34 ea b4 07 b7 70 a6 b7 ba
       -0.4714 0.2585 -0.427 0.2905 -0.3071 -0.4392 -0.02515 -0.8394
000180 dc b2 83 b9 70 35 cd 2e be 32 cb 35 69 32 17 b7
       -0.2144 -0.689 0.3398 0.10626 0.2107 0.362 0.2003 -0.443
000190 e5 30 82 2f a5 35 31 31 a0 2f 3f b7 4c b1 b0 b3
       0.153 0.1173 0.3528 0.1622 0.11914 -0.453 -0.1655 -0.2402
0001a0 df b4 18 b3 96 37 b7 18 32 b5 67 31 96 3c 62 36
       -0.3044 -0.2217 0.474 0.002302 -0.3247 0.1688 1.146 0.399
0001b0 97 3a 89 26 71 b5 2f b9 de 35 fe 2e 69 33 73 31
       0.8237 0.02553 -0.34 -0.648 0.3667 0.10925 0.2316 0.1703
0001c0 2d 3a 48 b3 9a af f2 ac c8 b1 09 a8 c3 31 70 39
       0.772 -0.2275 -0.1188 -0.0773 -0.1807 -0.03152 0.18 0.6797
0001d0 fa b4 99 2f 0f b1 9b 2e 5e ad 8e b6 9e b6 67 b4
       -0.311 0.1187 -0.1581 0.1032 -0.08386 -0.4097 -0.4136 -0.2751
0001e0 cf af 84 3a fb b2 fe 32 55 a8 4a b8 4d 36 90 34
       -0.122 0.8145 -0.2181 0.2185 -0.03384 -0.536 0.3938 0.2852
0001f0 b2 20 ca 36 cb b4 c0 ac 6b 34 41 bc 18 b4 e2 33
       0.00917 0.4243 -0.2996 -0.0742 0.2761 -1.063 -0.2559 0.2463

stages.s1.b1.block.2.1.weight f2 [16]
000000 6b 3b da 3b 5c 3a 5a 39 15 3c b1 39 90 3b 00 3c
       0.9272 0.9814 0.795 0.669 1.0205 0.7114 0.9453 1.0
000010 18 3a 57 3c 5a 3b b0 39 bb 3c 72 3c d3 3a 61 3c
       0.7617 1.085 0.919 0.711 1.183 1.111 0.853 1.095

stages.s1.b1.block.2.1.bias f2 [16]
000000 ab 33 c0 38 05 2e 33 35 a8 2b 43 b1 0e ab 11 2a
       0.2396 0.5938 0.09406 0.325 0.0598 -0.1644 -0.0551 0.0474
000010 47 31 34 af c5 30 9d b2 25 2f 84 2d 76 34 20 b0
       0.1649 -0.11255 0.149 -0.2067 0.11163 0.0862 0.2788 -0.1289

stages.s1.b1.block.2.1.running_mean f2 [16]
000000 ce bd 27 b1 fe b3 e1 2e 6f 3e 64 ba 16 35 66 b2
       -1.451 -0.161 -0.2498 0.1075 1.608 -0.799 0.3179 -0.2
000010 81 b9 28 3f 38 3c 67 b2 d8 b3 e9 32 de 36 a4 35
       -0.688 1.789 1.055 -0.2001 -0.2451 0.216 0.4292 0.3525

stages.s1.b1.block.2.1.running_var f2 [16]
000000 ed 40 6b 42 22 44 a4 3d 4b 44 b5 41 15 3d bf 3e
       2.463 3.209 4.133 1.41 4.293 2.854 1.2705 1.687
000010 0f 44 b9 42 0d 45 77 42 61 40 ce 43 53 3e 78 3f
       4.06 3.361 5.05 3.232 2.19 3.902 1.581 1.867

stages.s1.b2.block.0.0.weight f2 [32, 16, 1, 1]
000000 98 3a b9 ae 05 26 7c a2 06 34 cd b3 a2 31 72 b7
       0.824 -0.10504 0.02351 -0.012665 0.2515 -0.2438 0.176 -0.4653
000010 7d 33 a8 33 7e a4 ab b2 52 b9 1c af b6 ae 1f 32
       0.234 0.2393 -0.01755 -0.2084 -0.665 -0.1111 -0.10486 0.1913
000020 34 b1 a1 b6 78 38 9d b4 a2 2c e6 a1 c3 b4 1f b5
       -0.1626 -0.4143 0.5586 -0.2883 0.0724 -0.01152 -0.2976 -0.32
000030 46 b8 9f 2f 1c 34 83 32 8a b5 6a b3 72 2d ff 33
       -0.534 0.1191 0.2568 0.2035 -0.3462 -0.2317 0.0851 0.2499
000040 2a 36 82 b1 c3 b5 48 35 ec b5 28 30 03 24 21 32
       0.3853 -0.1721 -0.36 0.33 -0.37 0.1299 0.01567 0.1915
000050 4b b5 72 b5 39 34 3c 2d 86 b4 75 a6 1b b6 b0 30
       -0.3308 -0.3403 0.264 0.0818 -0.2827 -0.02522 -0.3816 0.1465
000060 9f 33 53 ae 5b b6 c9 b9 a2 ae 6e ad 61 26 69 b1
       0.2382 -0.0988 -0.3972 -0.723 -0.10364 -0.08484 0.02492 -0.1691
000070 5c b5 54 36 13 b2 1b 38 15 b6 ad 2c 5c 35 9d ae
       -0.335 0.3955 -0.1898 0.513 -0.3801 0.07306 0.335 -0.10333
000080 30 35 6c 32 9c 38 63 3a c1 b7 4f b3 5d 29 8e b6
       0.3242 0.2007 0.576 0.7983 -0.4846 -0.2284 0.0419 -0.4097
000090 22 b7 72 ac 7d 31 27 b9 ff a8 76 29 c6 ad d5 32
       -0.4458 -0.06946 0.1715 -0.644 -0.03903 0.04266 -0.0902 0.2135
0000a0 09 ae 42 b4 22 ac 18 35 ba 37 a8 aa 2b 32 1b b4
       -0.0943 -0.266 -0.0646 0.3184 0.483 -0.052 0.1927 -0.2566
0000b0 78 ad 34 b5 86 36 5b ad 90 28 32 a2 ec 37 12 b6
       -0.08545 -0.3252 0.4077 -0.0837 0.03564 -0.0121 0.495 -0.3794
0000c0 fc 34 88 32 99 b5 18 37 88 b0 d0 9c 5a 34 3a 38
       0.3115 0.2041 -0.3499 0.4434 -0.1416 -0.0047 0.272 0.5283
0000d0 b9 b3 59 39 9c af cc 2d e7 35 c5 25 bc 31 77 33
       -0.2413 0.6685 -0.1189 0.0906 0.369 0.02254 0.1792 0.2333
0000e0 bd b5 86 b7 64 ac 58 b4 69 ac 04 b2 52 b7 9f 20
       -0.3586 -0.4702 -0.0686 -0.2715 -0.0689 -0.188 -0.4575 0.009026
0000f0 03 2f 93 b8 f9 33 b8 38 19 35 bd 35 26 b9 78 37
       0.10956 -0.572 0.2491 0.59 0.3186 0.3586 -0.6436 0.4668
000100 72 ac e6 2d b0 9f 76 b3 48 ab 0c 32 05 b5 9b 38
       -0.06946 0.09216 -0.007507 -0.2332 -0.0569 0.189 -0.3137 0.5757
000110 85 30 48 ae 49 32 90 b0 08 32 44 38 2c b3 48 ad
       0.1412 -0.09814 0.1964 -0.1426 0.1885 0.533 -0.2241 -0.0825
000120 cd 37 1d b3 5c 39 b1 b0 af af 0d 2d 4c b5 d9 b5
       0.4875 -0.2223 0.67 -0.1466 -0.12006 0.0789 -0.331 -0.3655
000130 80 2a 2c a1 16 2f 5c 31 91 af a5 1c c5 ab 6d b3
       0.05078 -0.0101 0.1107 0.1675 -0.1182 0.004536 -0.0607 -0.232
000140 dd 34 54 31 7a b5 7f 39 1a b4 f3 b4 64 33 69 2b
       0.304 0.1665 -0.3423 0.687 -0.2563 -0.3093 0.231 0.0579
000150 16 b3 7b 32 0d 95 72 a8 91 ac 81 34 e4 32 45 ab
       -0.2214 0.2025 -0.001233 -0.03473 -0.07135 0.2815 0.2153 -0.0568
000160 65 2f 90 36 df b2 30 b4 06 b4 f5 b0 13 b6 63 34
       0.11554 0.4102 -0.2147 -0.2617 -0.2515 -0.1549 -0.3796 0.2742
000170 a8 ac 03 36 cc 30 48 ad 8b b6 0b b8 2f a9 c3 2d
       -0.07275 0.3757 0.1499 -0.0825 -0.409 -0.5054 -0.0405 0.09
000180 f1 21 99 2c 45 33 66 38 4d b0 15 b8 52 b4 31 ae
       0.011604 0.07184 0.2272 0.55 -0.1344 -0.5103 -0.27 -0.09674
000190 4f 38 29 b8 a7 37 a9 b5 00 ad e7 b9 30 2c 15 2c
       0.5386 -0.52 0.4783 -0.3538 -0.0781 -0.738 0.0654 0.0638
0001a0 cc 30 3a 33 87 b7 40 3c d5 b3 73 30 9a b2 86 32
       0.1499 0.2258 -0.4705 1.0625 -0.2448 0.139 -0.2063 0.2039
0001b0 a9 a9 b5 af 38 2c 2e a1 1f 33 cf b3 f2 af df b1
       -0.04422 -0.1204 0.0659 -0.01012 0.2225 -0.244 -0.12415 -0.1835
0001c0 0f b2 0c 2c cb 35 74 3a cd b0 5a 27 47 ad 7d b2
       -0.1893 0.06323 0.362 0.8066 -0.15 0.02872 -0.08246 -0.2028
0001d0 69 ae f8 b4 41 ba c1 b7 8a b4 ac a8 c4 b5 a6 31
       -0.10016 -0.3105 -0.7817 -0.4846 -0.2837 -0.0365 -0.3604 0.1765
0001e0 a1 2e 77 38 16 39 99 37 65 b4 10 b8 70 32 10 b9
       0.1036 0.558 0.6357 0.4749 -0.2747 -0.508 0.2012 -0.633
0001f0 88 2c 02 b6 fb 92 07 36 a3 35 eb 2b d1 38 16 36
       0.0708 -0.3755 -0.000852 0.3767 0.3523 0.06186 0.602 0.3804

stages.s1.b2.block.0.1.weight f2 [32]
000000 59 3c 75 3c 84 3c 0e 3c 0f 3b e7 3d 22 3a 7a 3d
       1.087 1.114 1.129 1.014 0.8823 1.476 0.7666 1.369
000010 5e 3c 24 3a 5e 3d b6 3c 77 3b 80 3d 60 39 d1 3c
       1.092 0.7676 1.342 1.178 0.933 1.375 0.672 1.204
000020 9c 3b 2d 3d 1c 3d 67 3c 66 3b 6c 3c e4 38 97 3d
       0.951 1.294 1.277 1.101 0.925 1.105 0.6113 1.397
000030 87 3b 33 3d 10 3a 8a 3a c7 39 a3 3a 14 3c 86 3b
       0.941 1.3 0.758 0.8174 0.722 0.8296 1.02 0.9404

stages.s1.b2.block.0.1.bias f2 [32]
000000 a9 28 89 1d 93 2f bc b1 ed 34 0b a1 ff 34 fd 2d
       0.0364 0.005405 0.11835 -0.1792 0.3079 -0.00985 0.3123 0.09357
000010 bc aa 38 35 c5 ad e5 2c cb 30 70 2a 1c 34 d8 2b
       -0.0526 0.3262 -0.09015 0.0765 0.1498 0.0503 0.2568 0.06128
000020 67 33 61 a0 60 2f 16 2b 52 b1 30 2c a3 35 c1 a8
       0.2313 -0.00855 0.11523 0.05536 -0.1663 0.0654 0.3523 -0.03714
000030 0b b1 81 30 ae 33 9a b1 1c 34 56 33 c3 31 70 32
       -0.1576 0.1407 0.24 -0.175 0.2568 0.2292 0.18 0.2012

stages.s1.b2.block.0.1.running_mean f2 [32]
000000 a7 35 73 bd b9 b8 ae bd 20 39 73 39 41 3f 1c bd
       0.3533 -1.362 -0.5903 -1.42 0.6406 0.681 1.813 -1.277
000010 86 37 39 b0 66 3c 98 b9 bb 35 f6 3a b6 ba 35 40
       0.4702 -0.132 1.1 -0.699 0.3582 0.87 -0.839 2.104
000020 02 b1 1e be 43 40 16 b9 60 36 6a 3c 59 c0 fc 30
       -0.1565 -1.529 2.13 -0.6357 0.3984 1.104 -2.174 0.1558
000030 fd 3d b6 bf 72 b4 0b bc 0b 22 65 be 11 3c a3 3b
       1.497 -1.928 -0.2778 -1.011 0.0118 -1.599 1.017 0.9546

stages.s1.b2.block.0.1.running_var f2 [32]
000000 9e 3e 43 3f 6f 3b a4 3c 5b 3e 5a 3b 77 3d b9 3d
       1.654 1.815 0.929 1.16 1.589 0.919 1.366 1.431
000010 60 40 84 38 14 40 d8 3d 7f 3c 5c 42 73 40 15 40
       2.188 0.5645 2.04 1.461 1.124 3.18 2.225 2.041
000020 83 3f d5 3d 2d 3a 93 3f 73 3d c1 40 81 3d 0e 41
       1.878 1.458 0.772 1.894 1.362 2.377 1.376 2.527
000030 f9 3f be 42 ae 37 9f 3d 9e 3b c2 40 63 3d ca 3d
       1.993 3.371 0.48 1.405 0.952 2.379 1.347 1.447

stages.s1.b2.block.1.0.weight f2 [32, 1, 3, 3]
000000 60 af 91 b2 b7 ae 48 27 d1 30 ba ad 36 33 26 a9
       -0.11523 -0.2052 -0.1049 0.02844 0.1505 -0.0895 0.2253 -0.04022
000010 53 31 2e 1d cf b0 47 aa 3a 32 f1 2e aa 37 52 ae
       0.1664 0.00506 -0.1503 -0.04904 0.1946 0.10846 0.479 -0.09875
000020 9e af f1 21 72 b3 97 36 e2 a1 90 ad 43 32 db af
       -0.119 0.011604 -0.2327 0.4119 -0.01149 -0.0869 0.1957 -0.12274
000030 60 ae e8 2c 12 a9 80 b4 58 28 ad af 27 b1 c0 24
       -0.0996 0.07666 -0.0396 -0.2812 0.03394 -0.11993 -0.161 0.01855
000040 7d 30 16 ad 9a 34 60 32 19 b4 50 b6 b3 b5 44 32
       0.1403 -0.07947 0.2876 0.1992 -0.256 -0.3945 -0.3562 0.1958
000050 e6 2d a7 2c cf 23 ed aa 1f 1d b5 2c 32 30 8a b3
       0.09216 0.0727 0.01525 -0.0541 0.005 0.07355 0.1311 -0.2356
000060 5a 2d 67 b3 66 2c d6 2c 21 b5 43 2c fc a1 86 b5
       0.0836 -0.2313 0.0687 0.07556 -0.3206 0.0666 -0.01169 -0.3452
000070 2a 35 6e 33 7c ae 39 b1 0c 2e 22 ae f4 aa ca 35
       0.3228 0.2322 -0.1013 -0.1632 0.0945 -0.0958 -0.05432 0.3618
000080 66 35 87 a4 1e b3 10 b0 2d b4 3e 2f 17 19 50 ac
       0.3374 -0.01768 -0.2224 -0.127 -0.261 0.11316 0.002485 -0.0674
000090 f4 a7 71 b4 83 a5 e4 30 dc af 3b b1 e9 32 0a 25
       -0.03107 -0.2776 -0.02153 0.1528 -0.1228 -0.1635 0.216 0.01968
0000a0 69 b5 be 30 bf b1 7f 1c b7 ac 3e 35 ec a6 dc ab
       -0.3381 0.1482 -0.1796 0.00439 -0.07367 0.3276 -0.02704 -0.0614
0000b0 33 35 e4 b5 47 b1 2a b4 93 b1 37 35 59 2d 22 31
       0.325 -0.3682 -0.1649 -0.2603 -0.1742 0.326 0.08356 0.1604
0000c0 be 2b 96 23 20 b0 4e 33 f7 b0 c2 b0 e2 34 b6 ab
       0.0605 0.01482 -0.1289 0.2283 -0.1552 -0.1487 0.3052 -0.06024
0000d0 1b b0 64 34 f5 2a cf b4 04 34 df 30 f5 2c d1 b5
       -0.1283 0.2744 0.05435 -0.3005 0.251 0.1522 0.07745 -0.3635
0000e0 9b b1 d9 b0 98 32 ca a8 9d a8 ed b1 0d b2 a1 ad
       -0.1752 -0.1515 0.206 -0.0374 -0.03604 -0.1852 -0.1891 -0.08795
0000f0 4d 2e 37 32 74 a6 a3 37 be 30 2e a3 7d 30 9e 34
       0.09845 0.1942 -0.0252 0.4773 0.1482 -0.01402 0.1403 0.2886
000100 6b b1 10 af 78 2a fb b4 06 2e f3 31 b7 ab 05 b5
       -0.1693 -0.11035 0.05054 -0.3113 0.0941 0.1859 -0.06027 -0.3137
000110 7b ad 14 ad 8c ab b8 b4 cb 35 c8 33 21 2b 3a 2f
       -0.08563 -0.07935 -0.05896 -0.295 0.362 0.2432 0.0557 0.1129
000120 e6 2f 3b b0 ca 2c e2 ab 5a a8 44 31 32 33 b0 35
       0.1234 -0.1322 0.0748 -0.06158 -0.034 0.1646 0.2249 0.3555
000130 55 34 a5 b3 b6 b4 78 ac 06 29 de b0 41 ad b6 28
       0.2708 -0.2389 -0.2944 -0.0698 0.03925 -0.1521 -0.0821 0.0368
000140 a5 b1 51 32 4c ae 29 ad 0d 32 29 b3 48 af c0 2b
       -0.1764 0.1974 -0.0984 -0.0806 0.1891 -0.2238 -0.1138 0.06055
000150 cc b4 f1 ae a8 95 3d af a9 a4 3b b3 43 25 ff a8
       -0.2998 -0.10846 -0.001381 -0.1131 -0.0182 -0.226 0.02055 -0.03903
000160 0c b0 e6 33 88 2e 89 33 fa 2e 18 b2 95 a8 c7 25
       -0.1265 0.2468 0.10205 0.2355 0.109 -0.1904 -0.0358 0.02257
000170 ad ad 07 b5 be 31 c1 ae d3 ad 5a 2a d4 2f 92 2d
       -0.0887 -0.3142 0.1794 -0.1055 -0.091 0.04962 0.1223 0.08704
000180 f5 b4 34 b2 6d b4 cc 30 24 30 31 2c 96 b0 da b3
       -0.3098 -0.1938 -0.2766 0.1499 0.1294 0.0655 -0.1433 -0.2454
000190 83 b2 17 34 47 a5 fa b2 02 35 07 35 14 2b ea 2a
       -0.2035 0.2556 -0.02061 -0.218 0.313 0.3142 0.0553 0.05402
0001a0 fd 35 54 30 6a ae 24 36 23 34 61 b0 8b 23 49 b0
       0.3743 0.1353 -0.1002 0.3838 0.2585 -0.1368 0.01473 -0.1339
0001b0 94 ad dc 2f 04 2a f9 2a 0b b5 29 b4 c9 2d 9f b2
       -0.08716 0.1228 0.047 0.05447 -0.3152 -0.26 0.0904 -0.2069
0001c0 f6 b2 7e 20 84 33 48 a9 99 a6 72 2c 69 27 fd 34
       -0.2175 0.00877 0.2349 -0.04126 -0.02577 0.06946 0.02895 0.3118
0001d0 7c 2d 64 b2 d0 ad 94 b0 b4 31 e9 92 5e b2 95 34
       0.0857 -0.1997 -0.0908 -0.1431 0.1782 -0.0008435 -0.199 0.2864
0001e0 74 30 b7 b0 5d 33 52 af ad 33 0d 2e ab 36 1d af
       0.1392 -0.1473 0.2301 -0.1144 0.2399 0.09454 0.4167 -0.11115
0001f0 4d b0 4e 2e f8 b2 55 b0 fa 34 3b 31 0d 30 d7 2e
       -0.1344 0.0985 -0.2178 -0.1354 0.311 0.1635 0.1266 0.1069

stages.s1.b2.block.1.1.weight f2 [32]
000000 ca 3a e6 3a a6 3a 3d 3c 69 3c 98 3b d9 39 dc 3c
       0.8486 0.8623 0.831 1.06 1.103 0.949 0.731 1.215
000010 50 3c 69 3d ff 3c 1e 3d a7 3c d2 3a 1b 3b 45 3c
       1.078 1.353 1.249 1.279 1.163 0.8525 0.888 1.067
000020 88 3c 2d 3c 21 3c c3 39 65 3a 78 3d 12 3c ff 3c
       1.133 1.044 1.032 0.72 0.7993 1.367 1.018 1.249
000030 ef 3a 73 3c 74 3a b0 3b 54 39 f1 3a ef 3a 1f 3b
       0.8667 1.112 0.8066 0.961 0.666 0.8677 0.8667 0.89

stages.s1.b2.block.1.1.bias f2 [32]
000000 99 ae f1 28 6b b4 db a2 da b4 ec aa bb af a6 b5
       -0.1031 0.0386 -0.2761 -0.01339 -0.3032 -0.05408 -0.1208 -0.353
000010 cc 21 70 b2 d9 b2 d6 b4 df ac 78 ab 3d 31 8e 30
       0.01132 -0.2012 -0.214 -0.3022 -0.0761 -0.05835 0.1637 0.1423
000020 38 32 a3 33 71 32 c6 aa 21 ae d5 b4 28 34 cb 91
       0.1943 0.2386 0.2013 -0.05292 -0.09576 -0.302 0.2598 -0.000707
000030 2a ad a9 26 1f ad 6c 30 39 b3 45 b4 6b b2 c9 b2
       -0.0807 0.02602 -0.08 0.1382 -0.2257 -0.2668 -0.2006 -0.212

stages.s1.b2.block.1.1.running_mean f2 [32]
000000 2d a0 cc 30 1b 2a 30 25 33 b5 f5 b1 24 ab 74 2d
       -0.008156 0.1499 0.0477 0.02026 -0.325 -0.1862 -0.0558 0.0852
000010 4d b3 6a 2b 3d a8 76 a6 b7 a6 42 33 1d 2b 91 ac
       -0.2281 0.05792 -0.0331 -0.02524 -0.02623 0.2268 0.05557 -0.07135
000020 b9 37 6f b5 40 b5 d1 27 04 b1 59 ad 06 29 91 37
       0.4827 -0.3396 -0.3281 0.03053 -0.1567 -0.08356 0.03925 0.473
000030 85 b3 90 34 83 2c 1c 1f f8 34 7f ac 39 34 22 b4
       -0.235 0.2852 0.0705 0.006943 0.3105 -0.07025 0.264 -0.2583

stages.s1.b2.block.1.1.running_var f2 [32]
000000 ef 29 55 2c a9 2f 7a 2b a2 32 a5 2f 73 2a 36 34
       0.04636 0.0677 0.1197 0.0584 0.2073 0.11945 0.05038 0.2632
000010 9e 32 8b 2d 8c 34 62 33 c4 2f 51 34 3e 27 3f 31
       0.2068 0.0866 0.2842 0.2307 0.12134 0.2698 0.02829 0.164
000020 bc 34 92 33 b2 35 48 29 06 2e 18 34 24 2c 57 38
       0.296 0.2366 0.356 0.04126 0.0941 0.2559 0.0647 0.5425
000030 69 33 5a 2e 70 2d f3 26 cf 2f 77 2c 75 31 35 31
       0.2316 0.09924 0.08496 0.02715 0.122 0.06976 0.1705 0.1627

stages.s1.b2.block.2.0.weight f2 [16, 32, 1, 1]
000000 46 34 4a ad 9e ba d0 b6 94 b1 aa b7 96 b7 01 36
       0.267 -0.08264 -0.827 -0.4258 -0.1743 -0.479 -0.474 0.3752
000010 0e b7 fe bd c8 32 66 ad d2 35 94 bb 95 34 74 b5
       -0.441 -1.498 0.2119 -0.08435 0.3638 -0.9473 0.2864 -0.3408
000020 5d 2c 51 30 51 37 e6 36 26 31 8e 38 cb b5 e6 b2
       0.0682 0.1349 0.4573 0.4312 0.1609 0.5693 -0.362 -0.2156
000030 54 b7 2a 39 27 b5 04 b3 64 b2 5f ba 13 b9 3f 34
       -0.458 0.6455 -0.322 -0.2192 -0.1997 -0.7964 -0.6343 0.2654
000040 76 b5 bc 35 71 90 9f b6 c4 2d 6f 27 47 b5 46 35
       -0.3413 0.3584 -0.000542 -0.4138 0.0901 0.02904 -0.3298 0.3296
000050 67 37 8a a8 07 3c 2c b6 58 38 5e 37 04 2c 95 b6
       0.4626 -0.03546 1.007 -0.3857 0.543 0.4604 0.06274 -0.4114
000060 56 33 6e b7 3e aa cf a9 6e b4 0c 38 eb af 31 b3
       0.2292 -0.4644 -0.04877 -0.04538 -0.2769 0.506 -0.1237 -0.2247
000070 fb 2b 88 b6 91 aa 0f 34 1f ad 99 b0 80 ad ed b0
       0.06235 -0.4082 -0.0513 0.2537 -0.08 -0.1437 -0.08594 -0.1539
000080 5d ba 0e 35 57 b6 c2 2f 04 b5 6e 2d 95 b7 00 32
       -0.7954 0.316 -0.3962 0.1212 -0.3135 0.08484 -0.4739 0.1875
000090 9b af c0 b0 d5 b4 13 b7 c7 b6 1f b8 7d 32 50 b8
       -0.11884 -0.1484 -0.302 -0.4421 -0.4236 -0.515 0.2028 -0.539
0000a0 8c b4 ed 35 af 2d 7e b5 e0 34 ce b5 6e 26 20 b9
       -0.2842 0.3704 0.0888 -0.3433 0.3047 -0.3628 0.02512 -0.6406
0000b0 8b 30 0b 35 ec ac e1 2f b7 37 8f 38 56 ae 9f 39
       0.142 0.3152 -0.0769 0.1231 0.4822 0.57 -0.099 0.7026
0000c0 e1 ab 1c 34 5c b4 e9 b1 99 38 29 b0 e4 b2 e9 b6
       -0.06155 0.2568 -0.2725 -0.1847 0.5747 -0.13 -0.2153 -0.432
0000d0 6b b2 73 34 59 39 79 32 08 34 58 b1 d4 29 50 35
       -0.2006 0.278 0.6685 0.2023 0.252 -0.167 0.04553 0.332
0000e0 8a b5 e7 28 3a 3c 53 b2 47 35 15 37 a7 35 4a 34
       -0.3462 0.0383 1.057 -0.1976 0.3298 0.4426 0.3533 0.268
0000f0 fd 31 d7 b4 0c 35 1b 29 2c b2 28 35 9f b4 6d 32
       0.1871 -0.3025 0.3154 0.0399 -0.1929 0.3223 -0.2888 0.2008
000100 18 37 d9 b2 ce 2e 14 3a 8b 38 dd af 3c b7 83 39
       0.4434 -0.214 0.1063 0.76 0.568 -0.12286 -0.4521 0.689
000110 72 b6 fa ad f7 b0 73 2d 81 af 8d b5 16 30 30 2f
       -0.4028 -0.0934 -0.1552 0.08514 -0.11725 -0.347 0.1277 0.1123
000120 ec 31 16 21 46 30 43 37 22 32 7c 34 66 b0 fc 34
       0.185 0.00993 0.1335 0.4539 0.1917 0.2803 -0.1375 0.3115
000130 d4 35 7b b8 ab b4 4d 34 b4 38 a4 33 52 b4 90 38
       0.3643 -0.56 -0.2917 0.2688 0.588 0.2388 -0.27 0.5703
000140 6f b6 99 b7 51 32 d5 af 01 b7 c5 aa 19 38 29 b9
       -0.402 -0.4749 0.1974 -0.1224 -0.4377 -0.0529 0.512 -0.645
000150 aa 38 99 34 4b 38 ce 35 35 34 c6 26 5c 36 30 b3
       0.583 0.2874 0.5366 0.3628 0.263 0.02646 0.3975 -0.2246
000160 27 b6 6c b5 50 37 25 af b8 35 d1 2e 0f ad e6 a7
       -0.3845 -0.3389 0.457 -0.11163 0.3574 0.1065 -0.07904 -0.03085
000170 6c 39 fd 3a 53 36 43 31 06 ad b7 28 e9 b8 5e 30
       0.6777 0.8735 0.3953 0.1644 -0.0785 0.03683 -0.614 0.1365
000180 79 b6 56 36 86 33 87 ae 48 b4 25 34 3e 33 30 b6
       -0.4045 0.396 0.2351 -0.102 -0.2676 0.259 0.2263 -0.3867
000190 8c 2e a7 38 73 af 6e 39 ae b0 e4 38 5d 27 15 36
       0.1023 0.5815 -0.1164 0.6787 -0.1462 0.6113 0.02876 0.3801
0001a0 12 34 f0 37 40 b8 b8 29 3c 39 ce b1 5c a2 6d 31
       0.2544 0.496 -0.5312 0.04468 0.6543 -0.1814 -0.01242 0.1696
0001b0 39 2d 9e b8 b2 33 05 a0 05 37 4d 32 05 3a b5 b3
       0.0816 -0.577 0.2405 -0.00785 0.4387 0.1969 0.7524 -0.2408
0001c0 d1 2b 05 35 ae 30 22 2e 85 b4 24 35 f7 b1 5f b8
       0.06107 0.3137 0.1462 0.0958 -0.2825 0.3213 -0.1864 -0.5464
0001d0 57 36 79 32 97 36 07 39 e5 3a fe b6 db 2c 13 a6
       0.3962 0.2023 0.4119 0.6284 0.862 -0.437 0.07587 -0.02373
0001e0 96 34 5c 20 93 b9 55 ab cc 38 ba 35 32 af 75 b7
       0.2866 0.008514 -0.697 -0.05728 0.5996 0.358 -0.1124 -0.466
0001f0 b0 34 4a 34 6b b0 54 35 a3 b5 b5 ac 8c 31 4e b6
       0.293 0.268 -0.1381 0.333 -0.3523 -0.07355 0.1733 -0.394

stages.s1.b2.block.2.1.weight f2 [16]
000000 b3 3c 74 3c c4 3b 72 3c ee 3a 64 3c cb 3c 50 3c
       1.175 1.113 0.9707 1.111 0.866 1.098 1.198 1.078
000010 e3 3b 7c 3c 9d 3b 3b 3c b9 3c 04 3b 1e 3c 67 3c
       0.986 1.121 0.9517 1.058 1.181 0.877 1.029 1.101

stages.s1.b2.block.2.1.bias f2 [16]
000000 00 30 d6 32 ea ac 87 26 33 35 56 a0 b7 b2 43 30
       0.125 0.2136 -0.0768 0.0255 0.325 -0.00847 -0.2098 0.1332
000010 ec a7 08 b0 50 38 0b b0 a3 ab 5b 2c 6b 31 98 31
       -0.03094 -0.126 0.539 -0.1263 -0.05966 0.06805 0.1693 0.1748

stages.s1.b2.block.2.1.running_mean f2 [16]
000000 4f bd 45 ab b1 b9 2c 3c 27 3a 30 39 a2 3c ef 38
       -1.327 -0.0568 -0.7114 1.043 0.769 0.6484 1.158 0.6167
000010 41 bc 4b 39 e5 bb 74 34 5a 2d fa ba b0 33 90 38
       -1.063 0.6616 -0.987 0.2783 0.0836 -0.872 0.2402 0.5703

stages.s1.b2.block.2.1.running_var f2 [16]
000000 9b 42 7f 3f e4 43 f7 3c c0 3d 3b 3f 5a 3f 35 3d
       3.303 1.874 3.945 1.241 1.4375 1.808 1.838 1.302
000010 1e 40 df 40 12 41 78 3f ac 40 3d 40 60 41 e4 3e
       2.059 2.436 2.535 1.867 2.336 2.12 2.688 1.723

stages.s1.b3.block.0.0.weight f2 [32, 16, 1, 1]
000000 4e b0 62 36 67 34 d0 b3 b9 35 39 b2 2e 38 c8 b4
       -0.1345 0.399 0.2751 -0.2441 0.3577 -0.1945 0.5225 -0.2988
000010 82 b7 0d a9 26 a7 39 ae 37 24 00 b2 73 b4 af b7
       -0.4692 -0.03946 -0.02792 -0.0972 0.01646 -0.1875 -0.278 -0.4802
000020 5f b3 3b b6 b3 a9 ae 2e 7a b3 12 2f 6f 36 3a 32
       -0.2303 -0.3894 -0.04453 0.1044 -0.2336 0.1105 0.402 0.1946
000030 5d b4 59 b3 c0 28 6e b4 0e b0 bc 37 99 b1 6d 33
       -0.2727 -0.2296 0.0371 -0.2769 -0.1267 0.4834 -0.1749 0.232
000040 c5 b5 1f b1 59 39 bf 31 47 26 df 2e 6e 38 d5 25
       -0.3606 -0.16 0.6685 0.1796 0.02452 0.10736 0.5537 0.02278
000050 8c b5 16 30 ed ae 10 39 ca b1 d2 2d 45 b0 b2 31
       -0.3467 0.1277 -0.1082 0.633 -0.1809 0.09094 -0.1334 0.178
000060 58 b4 08 39 88 9b 9a b5 bc 31 fa 31 1a b4 58 2a
       -0.2715 0.629 -0.003677 -0.35 0.1792 0.1868 -0.2563 0.04956
000070 ea ae ea b0 53 b4 a0 25 3e a5 b4 a7 cf a8 e9 a3
       -0.10803 -0.1536 -0.2703 0.02197 -0.02048 -0.03009 -0.03757 -0.01545
000080 83 2c 8f 28 6d b4 a4 b7 ea 38 85 98 34 b5 ef b5
       0.0705 0.0356 -0.2766 -0.4775 0.6143 -0.002207 -0.3252 -0.3708
000090 3d b3 14 ad 39 b9 e1 b0 ed 33 84 b1 14 36 23 b4
       -0.2262 -0.07935 -0.653 -0.1525 0.2477 -0.1724 0.38 -0.2585
0000a0 88 34 29 35 fa 30 05 37 43 b3 2f b5 de 25 fb 2f
       0.2832 0.3225 0.1555 0.4387 -0.2269 -0.324 0.02292 0.1247
0000b0 ed 30 f3 b4 cf 2e 24 33 8a 31 fd ac cc 37 36 b1
       0.1539 -0.3093 0.1064 0.2231 0.1731 -0.07794 0.4873 -0.1628
0000c0 eb b5 ee b6 c0 a9 59 36 50 34 55 a4 b9 35 3d 30
       -0.3699 -0.433 -0.04492 0.3967 0.2695 -0.01692 0.3577 0.1324
0000d0 7e 28 a6 a7 c7 31 23 a5 81 b1 22 ac f8 b1 5c 2f
       0.0351 -0.02988 0.1805 -0.02007 -0.172 -0.0646 -0.1865 0.115
0000e0 16 ac 67 b4 8e ad 67 b6 94 30 cc aa a3 33 87 ab
       -0.06384 -0.2751 -0.0868 -0.4001 0.1431 -0.0531 0.2386 -0.0588
0000f0 55 b8 42 a1 33 b1 ca b2 f3 36 f9 b2 b6 21 d9 37
       -0.5415 -0.01027 -0.1625 -0.2122 0.4343 -0.2179 0.011154 0.4905
000100 a3 37 15 b1 cf b0 8c b2 8a 36 1c 30 be b7 49 ac
       0.4773 -0.1588 -0.1503 -0.2046 0.4087 0.1284 -0.484 -0.06696
000110 fb 34 73 b1 e2 b5 37 35 46 b1 bd 22 ca 20 e7 b2
       0.3113 -0.1703 -0.3677 0.326 -0.1648 0.01316 0.00935 -0.2157
000120 6f 38 28 b2 2d 36 c7 b0 63 2e f4 35 1c 36 bc a8
       0.554 -0.1924 0.386 -0.1493 0.0998 0.372 0.3818 -0.037
000130 12 b0 cd ae 77 b1 e9 b4 6e 2e f6 b0 97 ab c5 ac
       -0.1272 -0.10626 -0.1708 -0.307 0.10046 -0.155 -0.0593 -0.0745
000140 0b b1 43 34 7f b5 86 b8 82 b6 12 31 bc b2 8a b5
       -0.1576 0.2664 -0.3435 -0.5654 -0.4067 0.1584 -0.2104 -0.3462
000150 bc a9 54 b7 6d b0 43 b9 25 a2 17 af e0 b1 1f 33
       -0.0448 -0.458 -0.1383 -0.6577 -0.012 -0.1108 -0.1836 0.2225
000160 cf 30 d5 2c 22 2e 67 b6 ee b5 2b 2e 03 b1 4c 2a
       0.1503 0.0755 0.0958 -0.4001 -0.3706 0.0964 -0.1566 0.0492
000170 4c 2e a2 a4 f1 ae 75 2e f6 36 18 b3 14 b1 39 38
       0.0984 -0.0181 -0.10846 0.1009 0.435 -0.2217 -0.1587 0.528
000180 59 33 80 37 e9 35 ec b2 aa b2 2f af c8 aa 28 b2
       0.2296 0.4688 0.3694 -0.2163 -0.2083 -0.11224 -0.05298 -0.1924
000190 65 ae 63 24 bb 31 d3 b1 44 b7 39 b5 c9 af 6d b4
       -0.0999 0.01714 0.1791 -0.182 -0.454 -0.3264 -0.12164 -0.2766
0001a0 be b2 16 b6 3d b8 a9 34 00 b3 4e b6 05 2c a4 b7
       -0.2107 -0.3804 -0.53 0.2913 -0.2188 -0.394 0.0628 -0.4775
0001b0 e6 b5 dc 35 f5 b5 82 ad 4a 2c cf 36 64 af 86 27
       -0.3687 0.3662 -0.3723 -0.08606 0.067 0.4255 -0.1155 0.02939
0001c0 65 32 ce b1 20 b4 b7 34 3e b1 d7 34 d7 b5 51 34
       0.1998 -0.1814 -0.2578 0.2947 -0.1638 0.3025 -0.365 0.2698
0001d0 59 b3 e0 b0 61 b4 c0 b4 5c 34 70 36 28 ac 09 b4
       -0.2296 -0.1523 -0.2737 -0.2969 0.2725 0.4023 -0.06494 -0.2522
0001e0 e7 30 55 36 90 39 46 ad fd b0 84 34 3d b0 e3 b6
       0.1532 0.3958 0.6953 -0.0824 -0.1559 0.2822 -0.1324 -0.4304
0001f0 22 b8 8e ad 4a 32 0b a3 e1 aa e0 a6 f0 b9 48 25
       -0.5166 -0.0868 0.1965 -0.013756 -0.05374 -0.02686 -0.742 0.02063

stages.s1.b3.block.0.1.weight f2 [32]
000000 86 3a ac 3c 0b 3d 92 3c 51 3c 7e 3c cf 3c 72 3d
       0.8154 1.168 1.261 1.143 1.079 1.123 1.202 1.361
000010 b5 3c b0 3d 69 3d 18 3c 27 37 44 3e 6a 3a 94 3c
       1.177 1.422 1.353 1.023 0.447 1.566 0.802 1.145
000020 25 39 9d 3d 0d 3c 66 3d 72 3c 25 3e 92 3a ab 3b
       0.643 1.403 1.013 1.35 1.111 1.536 0.8213 0.9585
000030 00 3d 4c 3e fb 3c f4 3c 8c 3a 32 3c 12 3d 2f 3c
       1.25 1.574 1.245 1.238 0.8184 1.049 1.268 1.046

stages.s1.b3.block.0.1.bias f2 [32]
000000 2e b4 62 a9 6c b1 b3 ac 18 b3 de ae b5 9f 6e ad
       -0.2612 -0.04205 -0.1694 -0.0734 -0.2217 -0.1073 -0.007526 -0.08484
000010 47 ae 43 1f 0b 2c be b1 99 36 d0 a4 f4 34 42 2e
       -0.0981 0.00709 0.0632 -0.1794 0.4124 -0.0188 0.3096 0.0978
000020 ad 35 6d 2c 67 34 21 a9 98 a6 d8 25 6c b2 fd 29
       0.3547 0.06915 0.2751 -0.04007 -0.02576 0.02283 -0.2007 0.04678
000030 cb a3 0c aa c9 2e ab 29 80 34 4d af d3 ab 9e 2f
       -0.01522 -0.04724 0.106 0.04428 0.2812 -0.1141 -0.06113 0.119

stages.s1.b3.block.0.1.running_mean f2 [32]
000000 01 b8 88 b9 57 39 f0 b5 b4 be ba 3f 25 2c 2f bc
       -0.5005 -0.6914 0.6675 -0.371 -1.676 1.932 0.06476 -1.046
000010 45 b7 01 37 d8 c1 69 b1 49 b8 a1 c0 48 b8 4b b4
       -0.4543 0.4377 -2.922 -0.1691 -0.5356 -2.314 -0.535 -0.2683
000020 6c c2 44 3d bb 2d d2 40 78 c0 e9 ba ca c0 e3 b4
       -3.21 1.316 0.08954 2.41 -2.234 -0.864 -2.395 -0.3054
000030 fd af 5b b9 9f 3d bf bd 3f 39 3d 3c 5b be e5 b5
       -0.1248 -0.6694 1.405 -1.437 0.656 1.06 -1.589 -0.3684

stages.s1.b3.block.0.1.running_var f2 [32]
000000 eb 40 f8 3e 9d 40 e9 3b 5a 44 ac 41 0e 3e e1 40
       2.459 1.742 2.307 0.989 4.35 2.836 1.514 2.44
000010 46 40 9e 41 2c 40 5c 3e 99 3d 35 40 d3 3d ac 42
       2.137 2.809 2.086 1.59 1.399 2.104 1.456 3.336
000020 18 44 59 43 78 40 33 41 ef 3f 15 40 22 42 70 40
       4.094 3.674 2.234 2.6 1.983 2.041 3.066 2.219
000030 4e 40 93 40 a8 40 31 41 1c 40 7f 40 4d 45 c9 40
       2.152 2.287 2.328 2.596 2.055 2.248 5.3 2.393

stages.s1.b3.block.1.0.weight f2 [32, 1, 3, 3]
000000 f8 2e 3e ae 6b 31 ee 2f af 31 db 31 24 a7 01 b6
       0.1089 -0.09753 0.1693 0.1239 0.1776 0.183 -0.0279 -0.3752
000010 c7 a0 e8 b0 fd 2e d2 20 54 30 2f 38 c9 30 05 2b
       -0.00933 -0.1533 0.1092 0.009415 0.1353 0.523 0.1495 0.05484
000020 56 2e 60 a7 eb af 36 31 7c 2d cf 30 02 32 b7 32
       0.099 -0.02881 -0.1237 0.1628 0.0857 0.1503 0.1877 0.2098
000030 06 26 75 35 53 32 6e 2d 57 ae bf b2 2b 2c 8f ae
       0.02353 0.341 0.1976 0.08484 -0.09906 -0.2108 0.0651 -0.1025
000040 41 28 e1 36 92 ae cd ac 2b ab 60 2a 16 30 09 a5
       0.03323 0.43 -0.10266 -0.075 -0.056 0.0498 0.1277 -0.01967
000050 2e 1c 23 35 ef b5 55 b6 76 ae 0b 30 a0 34 04 35
       0.00408 0.321 -0.3708 -0.3958 -0.10095 0.1263 0.289 0.3135
000060 c5 b4 ef 30 e4 31 c3 b1 df ab 11 ad 5d 2b 1b 2d
       -0.298 0.1542 0.1841 -0.18 -0.0615 -0.07916 0.05753 0.0798
000070 d2 2f 57 b5 7c 22 00 32 c5 b0 15 ad cf 31 92 b2
       0.1222 -0.3337 0.012665 0.1875 -0.149 -0.0794 0.1815 -0.2053
000080 bd ae 7c 26 64 ae cf 9e 06 30 7f b3 96 b1 9d 2b
       -0.1053 0.02533 -0.09985 -0.00665 0.1257 -0.2343 -0.1746 0.05948
000090 6d 32 88 2e eb 2e e7 33 95 29 c4 35 73 a6 47 28
       0.2008 0.10205 0.1081 0.247 0.0436 0.3604 -0.02519 0.03342
0000a0 d3 ad d4 ae 23 b0 b6 ac bd 2d b9 b1 c5 b0 55 a6
       -0.091 -0.1067 -0.1293 -0.0736 0.08966 -0.1788 -0.149 -0.02473
0000b0 22 ac fe ae 30 2a 35 29 7b a4 3b 34 47 30 52 34
       -0.0646 -0.10925 0.04834 0.04068 -0.0175 0.2644 0.1337 0.27
0000c0 7e ad 3a 2a 60 33 23 2d 1a 35 e5 26 f7 26 8f 2c
       -0.0858 0.04865 0.2305 0.08026 0.3188 0.02693 0.0272 0.0712
0000d0 82 b1 5a 34 28 32 e5 2c 54 28 00 24 2d 11 96 b1
       -0.1721 0.272 0.1924 0.0765 0.0338 0.01563 0.000632 -0.1746
0000e0 3e 32 82 b0 de b2 6d 32 e0 2f da 33 64 35 b5 a5
       0.1951 -0.1409 -0.2146 0.2008 0.12305 0.2454 0.337 -0.0223
0000f0 13 35 c7 2a dc 2b b0 2d 6d 1e 5c aa 80 ad 0d b1
       0.3171 0.05295 0.0614 0.08887 0.006275 -0.04968 -0.08594 -0.1578
000100 82 ad 98 ad 71 b0 33 ad 30 34 70 32 d7 33 07 b0
       -0.08606 -0.0874 -0.1388 -0.08124 0.2617 0.2012 0.245 -0.1259
000110 c1 ab 43 b5 d1 a5 50 a7 4f ae bd 2d 82 af 8b aa
       -0.06058 -0.3289 -0.02272 -0.02856 -0.0986 0.08966 -0.1173 -0.05112
000120 c0 34 1d 31 bf 31 85 2e 9f 33 8c af 97 aa 35 33
       0.2969 0.1598 0.1796 0.10187 0.2382 -0.1179 -0.05148 0.2252
000130 0d 31 5b 28 68 28 13 a8 08 27 7d ab 30 37 22 a5
       0.1578 0.03403 0.03442 -0.03183 0.02747 -0.0585 0.4492 -0.02005
000140 28 2e 85 35 7a ae 7e ac 6b 2c 5a b5 03 b0 8f 32
       0.0962 0.345 -0.1012 -0.0702 0.06903 -0.3345 -0.1254 0.205
000150 2c b4 02 30 b8 31 c4 30 c2 32 93 35 b9 b4 4f b2
       -0.2607 0.1252 0.1787 0.1489 0.2112 0.3484 -0.2952 -0.1971
000160 cc 24 2d 1c 48 b1 61 b4 54 31 f6 35 3b 32 86 33
       0.01874 0.004078 -0.165 -0.2737 0.1665 0.3726 0.1947 0.2351
000170 68 32 6f 2d 82 1f 80 2d 0c 1d 5c ac ce 29 db 25
       0.2002 0.0849 0.00733 0.08594 0.00493 -0.0681 0.04535 0.02287
000180 61 b5 57 30 5f 33 24 b2 84 2f aa 2c f5 35 5e 32
       -0.3362 0.1356 0.2303 -0.1919 0.11743 0.0729 0.3723 0.199
000190 55 a1 d5 2e 8c 31 f2 b1 5a 33 64 29 a9 b1 ea 28
       -0.010414 0.10675 0.1733 -0.1858 0.2297 0.0421 -0.1769 0.0384
0001a0 1e 35 19 20 70 ae f0 32 17 ad 78 30 c1 34 cc a8
       0.3198 0.008 -0.1006 0.2168 -0.0795 0.1396 0.297 -0.03748
0001b0 96 af 63 2f b2 ac ce ae b9 ae 4d b4 39 b3 ee ab
       -0.1185 0.1154 -0.07336 -0.1063 -0.10504 -0.2688 -0.2257 -0.06195
0001c0 cb 30 58 21 0f 31 10 36 a1 ac f0 9c 45 34 aa 1f
       0.1498 0.01044 0.1581 0.379 -0.0723 -0.00482 0.2668 0.007484
0001d0 ba b0 8f 32 68 a5 6e 33 11 30 17 34 69 34 83 2e
       -0.1477 0.205 -0.02112 0.2322 0.1271 0.2556 0.2756 0.10175
0001e0 24 aa 1e 2e fd aa 07 30 74 2e 6e 31 43 34 05 a8
       -0.04797 0.0956 -0.0546 0.1259 0.1008 0.1697 0.2664 -0.0314
0001f0 45 32 ab b0 62 b1 75 26 35 ad 4b b2 a2 ae c3 ad
       0.1959 -0.1459 -0.1682 0.02522 -0.08136 -0.1967 -0.10364 -0.09

stages.s1.b3.block.1.1.weight f2 [32]
000000 1f 3b 1a 3c 63 3c c5 3b f0 3b 6f 3c 1b 3c 51 3b
       0.89 1.025 1.097 0.971 0.992 1.108 1.026 0.9146
000010 45 3c 43 3c d8 3a 0b 3c 5a 3b ab 3c 0e 3c a7 3b
       1.067 1.065 0.8555 1.011 0.919 1.167 1.014 0.9565
000020 2b 3b 5a 3c 70 3c b8 3b 7c 3c f3 3b 97 3c 88 3c
       0.896 1.088 1.109 0.965 1.121 0.9937 1.147 1.133
000030 a4 3c 94 3c 8a 3b cc 39 12 3b 4a 3c 6d 3c 31 3c
       1.16 1.145 0.9424 0.7246 0.884 1.072 1.106 1.048

stages.s1.b3.block.1.1.bias f2 [32]
000000 3f b5 b4 35 07 34 74 b2 22 30 f1 2e 02 b0 ab a6
       -0.328 0.3564 0.2517 -0.2017 0.1292 0.10846 -0.1252 -0.02605
000010 24 33 25 24 58 ae 52 ae 18 af ef 26 62 b2 7c a3
       0.2231 0.01619 -0.0991 -0.09875 -0.11084 0.02708 -0.1995 -0.01462
000020 22 aa a0 35 98 9d 24 35 b1 b0 2d b3 0d b6 28 2c
       -0.0479 0.3516 -0.005463 0.3213 -0.1466 -0.2242 -0.3782 0.06494
000030 9a 29 94 30 95 34 12 b4 33 b1 a9 2c 57 32 f7 33
       0.04376 0.1431 0.2864 -0.2544 -0.1625 0.0728 0.1981 0.2489

stages.s1.b3.block.1.1.running_mean f2 [32]
000000 ab 29 1a 36 b8 37 3e a4 d5 af ef 31 22 29 99 b4
       0.04428 0.3813 0.4824 -0.01657 -0.1224 0.1854 0.0401 -0.2874
000010 a9 35 cf b6 62 37 20 34 73 20 79 38 18 24 8d b5
       0.3538 -0.4255 0.4614 0.2578 0.00869 0.559 0.01599 -0.347
000020 40 38 dc 37 ad b0 4c ae 5a 37 06 2a 05 31 15 35
       0.5312 0.4912 -0.1461 -0.0984 0.4595 0.04706 0.1569 0.3176
000030 79 b4 c1 36 f1 36 f2 32 5e b0 b8 b7 6c b4 d8 2e
       -0.2795 0.422 0.4338 0.217 -0.1365 -0.4824 -0.2764 0.10693
